node {
  name: "Placeholder"
  op: "Placeholder"
  attr {
    key: "dtype"
    value {
      type: DT_FLOAT
    }
  }
  attr {
    key: "shape"
    value {
      shape {
        dim {
          size: 1
        }
        dim {
          size: -1
        }
        dim {
          size: -1
        }
        dim {
          size: 3
        }
      }
    }
  }
}
node {
  name: "Placeholder_1"
  op: "Placeholder"
  attr {
    key: "dtype"
    value {
      type: DT_FLOAT
    }
  }
  attr {
    key: "shape"
    value {
      shape {
        dim {
          size: 1
        }
        dim {
          size: 3
        }
      }
    }
  }
}
node {
  name: "Placeholder_2"
  op: "Placeholder"
  attr {
    key: "dtype"
    value {
      type: DT_FLOAT
    }
  }
  attr {
    key: "shape"
    value {
      shape {
        dim {
          size: -1
        }
        dim {
          size: 5
        }
      }
    }
  }
}
node {
  name: "vgg_16/conv1/conv1_1/weights/Initializer/random_uniform/shape"
  op: "Const"
  attr {
    key: "_class"
    value {
      list {
        s: "loc:@vgg_16/conv1/conv1_1/weights"
      }
    }
  }
  attr {
    key: "dtype"
    value {
      type: DT_INT32
    }
  }
  attr {
    key: "value"
    value {
      tensor {
        dtype: DT_INT32
        tensor_shape {
          dim {
            size: 4
          }
        }
        tensor_content: "\003\000\000\000\003\000\000\000\003\000\000\000@\000\000\000"
      }
    }
  }
}
node {
  name: "vgg_16/conv1/conv1_1/weights/Initializer/random_uniform/min"
  op: "Const"
  attr {
    key: "_class"
    value {
      list {
        s: "loc:@vgg_16/conv1/conv1_1/weights"
      }
    }
  }
  attr {
    key: "dtype"
    value {
      type: DT_FLOAT
    }
  }
  attr {
    key: "value"
    value {
      tensor {
        dtype: DT_FLOAT
        tensor_shape {
        }
        float_val: -0.09975093603134155
      }
    }
  }
}
node {
  name: "vgg_16/conv1/conv1_1/weights/Initializer/random_uniform/max"
  op: "Const"
  attr {
    key: "_class"
    value {
      list {
        s: "loc:@vgg_16/conv1/conv1_1/weights"
      }
    }
  }
  attr {
    key: "dtype"
    value {
      type: DT_FLOAT
    }
  }
  attr {
    key: "value"
    value {
      tensor {
        dtype: DT_FLOAT
        tensor_shape {
        }
        float_val: 0.09975093603134155
      }
    }
  }
}
node {
  name: "vgg_16/conv1/conv1_1/weights/Initializer/random_uniform/RandomUniform"
  op: "RandomUniform"
  input: "vgg_16/conv1/conv1_1/weights/Initializer/random_uniform/shape"
  attr {
    key: "T"
    value {
      type: DT_INT32
    }
  }
  attr {
    key: "_class"
    value {
      list {
        s: "loc:@vgg_16/conv1/conv1_1/weights"
      }
    }
  }
  attr {
    key: "dtype"
    value {
      type: DT_FLOAT
    }
  }
  attr {
    key: "seed"
    value {
      i: 3
    }
  }
  attr {
    key: "seed2"
    value {
      i: 6
    }
  }
}
node {
  name: "vgg_16/conv1/conv1_1/weights/Initializer/random_uniform/sub"
  op: "Sub"
  input: "vgg_16/conv1/conv1_1/weights/Initializer/random_uniform/max"
  input: "vgg_16/conv1/conv1_1/weights/Initializer/random_uniform/min"
  attr {
    key: "T"
    value {
      type: DT_FLOAT
    }
  }
  attr {
    key: "_class"
    value {
      list {
        s: "loc:@vgg_16/conv1/conv1_1/weights"
      }
    }
  }
}
node {
  name: "vgg_16/conv1/conv1_1/weights/Initializer/random_uniform/mul"
  op: "Mul"
  input: "vgg_16/conv1/conv1_1/weights/Initializer/random_uniform/RandomUniform"
  input: "vgg_16/conv1/conv1_1/weights/Initializer/random_uniform/sub"
  attr {
    key: "T"
    value {
      type: DT_FLOAT
    }
  }
  attr {
    key: "_class"
    value {
      list {
        s: "loc:@vgg_16/conv1/conv1_1/weights"
      }
    }
  }
}
node {
  name: "vgg_16/conv1/conv1_1/weights/Initializer/random_uniform"
  op: "Add"
  input: "vgg_16/conv1/conv1_1/weights/Initializer/random_uniform/mul"
  input: "vgg_16/conv1/conv1_1/weights/Initializer/random_uniform/min"
  attr {
    key: "T"
    value {
      type: DT_FLOAT
    }
  }
  attr {
    key: "_class"
    value {
      list {
        s: "loc:@vgg_16/conv1/conv1_1/weights"
      }
    }
  }
}
node {
  name: "vgg_16/conv1/conv1_1/weights"
  op: "VariableV2"
  attr {
    key: "_class"
    value {
      list {
        s: "loc:@vgg_16/conv1/conv1_1/weights"
      }
    }
  }
  attr {
    key: "container"
    value {
      s: ""
    }
  }
  attr {
    key: "dtype"
    value {
      type: DT_FLOAT
    }
  }
  attr {
    key: "shape"
    value {
      shape {
        dim {
          size: 3
        }
        dim {
          size: 3
        }
        dim {
          size: 3
        }
        dim {
          size: 64
        }
      }
    }
  }
  attr {
    key: "shared_name"
    value {
      s: ""
    }
  }
}
node {
  name: "vgg_16/conv1/conv1_1/weights/Assign"
  op: "Assign"
  input: "vgg_16/conv1/conv1_1/weights"
  input: "vgg_16/conv1/conv1_1/weights/Initializer/random_uniform"
  attr {
    key: "T"
    value {
      type: DT_FLOAT
    }
  }
  attr {
    key: "_class"
    value {
      list {
        s: "loc:@vgg_16/conv1/conv1_1/weights"
      }
    }
  }
  attr {
    key: "use_locking"
    value {
      b: true
    }
  }
  attr {
    key: "validate_shape"
    value {
      b: true
    }
  }
}
node {
  name: "vgg_16/conv1/conv1_1/weights/read"
  op: "Identity"
  input: "vgg_16/conv1/conv1_1/weights"
  attr {
    key: "T"
    value {
      type: DT_FLOAT
    }
  }
  attr {
    key: "_class"
    value {
      list {
        s: "loc:@vgg_16/conv1/conv1_1/weights"
      }
    }
  }
}
node {
  name: "vgg_16/conv1/conv1_1/kernel/Regularizer/l2_regularizer/scale"
  op: "Const"
  attr {
    key: "_class"
    value {
      list {
        s: "loc:@vgg_16/conv1/conv1_1/weights"
      }
    }
  }
  attr {
    key: "dtype"
    value {
      type: DT_FLOAT
    }
  }
  attr {
    key: "value"
    value {
      tensor {
        dtype: DT_FLOAT
        tensor_shape {
        }
        float_val: 0.0005000000237487257
      }
    }
  }
}
node {
  name: "vgg_16/conv1/conv1_1/kernel/Regularizer/l2_regularizer/L2Loss"
  op: "L2Loss"
  input: "vgg_16/conv1/conv1_1/weights/read"
  attr {
    key: "T"
    value {
      type: DT_FLOAT
    }
  }
  attr {
    key: "_class"
    value {
      list {
        s: "loc:@vgg_16/conv1/conv1_1/weights"
      }
    }
  }
}
node {
  name: "vgg_16/conv1/conv1_1/kernel/Regularizer/l2_regularizer"
  op: "Mul"
  input: "vgg_16/conv1/conv1_1/kernel/Regularizer/l2_regularizer/scale"
  input: "vgg_16/conv1/conv1_1/kernel/Regularizer/l2_regularizer/L2Loss"
  attr {
    key: "T"
    value {
      type: DT_FLOAT
    }
  }
  attr {
    key: "_class"
    value {
      list {
        s: "loc:@vgg_16/conv1/conv1_1/weights"
      }
    }
  }
}
node {
  name: "vgg_16/conv1/conv1_1/biases/Initializer/Const"
  op: "Const"
  attr {
    key: "_class"
    value {
      list {
        s: "loc:@vgg_16/conv1/conv1_1/biases"
      }
    }
  }
  attr {
    key: "dtype"
    value {
      type: DT_FLOAT
    }
  }
  attr {
    key: "value"
    value {
      tensor {
        dtype: DT_FLOAT
        tensor_shape {
          dim {
            size: 64
          }
        }
        float_val: 0.0
      }
    }
  }
}
node {
  name: "vgg_16/conv1/conv1_1/biases"
  op: "VariableV2"
  attr {
    key: "_class"
    value {
      list {
        s: "loc:@vgg_16/conv1/conv1_1/biases"
      }
    }
  }
  attr {
    key: "container"
    value {
      s: ""
    }
  }
  attr {
    key: "dtype"
    value {
      type: DT_FLOAT
    }
  }
  attr {
    key: "shape"
    value {
      shape {
        dim {
          size: 64
        }
      }
    }
  }
  attr {
    key: "shared_name"
    value {
      s: ""
    }
  }
}
node {
  name: "vgg_16/conv1/conv1_1/biases/Assign"
  op: "Assign"
  input: "vgg_16/conv1/conv1_1/biases"
  input: "vgg_16/conv1/conv1_1/biases/Initializer/Const"
  attr {
    key: "T"
    value {
      type: DT_FLOAT
    }
  }
  attr {
    key: "_class"
    value {
      list {
        s: "loc:@vgg_16/conv1/conv1_1/biases"
      }
    }
  }
  attr {
    key: "use_locking"
    value {
      b: true
    }
  }
  attr {
    key: "validate_shape"
    value {
      b: true
    }
  }
}
node {
  name: "vgg_16/conv1/conv1_1/biases/read"
  op: "Identity"
  input: "vgg_16/conv1/conv1_1/biases"
  attr {
    key: "T"
    value {
      type: DT_FLOAT
    }
  }
  attr {
    key: "_class"
    value {
      list {
        s: "loc:@vgg_16/conv1/conv1_1/biases"
      }
    }
  }
}
node {
  name: "vgg_16/conv1/conv1_1/dilation_rate"
  op: "Const"
  attr {
    key: "dtype"
    value {
      type: DT_INT32
    }
  }
  attr {
    key: "value"
    value {
      tensor {
        dtype: DT_INT32
        tensor_shape {
          dim {
            size: 2
          }
        }
        tensor_content: "\001\000\000\000\001\000\000\000"
      }
    }
  }
}
node {
  name: "vgg_16/conv1/conv1_1/Conv2D"
  op: "Conv2D"
  input: "Placeholder"
  input: "vgg_16/conv1/conv1_1/weights/read"
  attr {
    key: "T"
    value {
      type: DT_FLOAT
    }
  }
  attr {
    key: "data_format"
    value {
      s: "NHWC"
    }
  }
  attr {
    key: "dilations"
    value {
      list {
        i: 1
        i: 1
        i: 1
        i: 1
      }
    }
  }
  attr {
    key: "padding"
    value {
      s: "SAME"
    }
  }
  attr {
    key: "strides"
    value {
      list {
        i: 1
        i: 1
        i: 1
        i: 1
      }
    }
  }
  attr {
    key: "use_cudnn_on_gpu"
    value {
      b: true
    }
  }
}
node {
  name: "vgg_16/conv1/conv1_1/BiasAdd"
  op: "BiasAdd"
  input: "vgg_16/conv1/conv1_1/Conv2D"
  input: "vgg_16/conv1/conv1_1/biases/read"
  attr {
    key: "T"
    value {
      type: DT_FLOAT
    }
  }
  attr {
    key: "data_format"
    value {
      s: "NHWC"
    }
  }
}
node {
  name: "vgg_16/conv1/conv1_1/Relu"
  op: "Relu"
  input: "vgg_16/conv1/conv1_1/BiasAdd"
  attr {
    key: "T"
    value {
      type: DT_FLOAT
    }
  }
}
node {
  name: "vgg_16/conv1/conv1_2/weights/Initializer/random_uniform/shape"
  op: "Const"
  attr {
    key: "_class"
    value {
      list {
        s: "loc:@vgg_16/conv1/conv1_2/weights"
      }
    }
  }
  attr {
    key: "dtype"
    value {
      type: DT_INT32
    }
  }
  attr {
    key: "value"
    value {
      tensor {
        dtype: DT_INT32
        tensor_shape {
          dim {
            size: 4
          }
        }
        tensor_content: "\003\000\000\000\003\000\000\000@\000\000\000@\000\000\000"
      }
    }
  }
}
node {
  name: "vgg_16/conv1/conv1_2/weights/Initializer/random_uniform/min"
  op: "Const"
  attr {
    key: "_class"
    value {
      list {
        s: "loc:@vgg_16/conv1/conv1_2/weights"
      }
    }
  }
  attr {
    key: "dtype"
    value {
      type: DT_FLOAT
    }
  }
  attr {
    key: "value"
    value {
      tensor {
        dtype: DT_FLOAT
        tensor_shape {
        }
        float_val: -0.07216878235340118
      }
    }
  }
}
node {
  name: "vgg_16/conv1/conv1_2/weights/Initializer/random_uniform/max"
  op: "Const"
  attr {
    key: "_class"
    value {
      list {
        s: "loc:@vgg_16/conv1/conv1_2/weights"
      }
    }
  }
  attr {
    key: "dtype"
    value {
      type: DT_FLOAT
    }
  }
  attr {
    key: "value"
    value {
      tensor {
        dtype: DT_FLOAT
        tensor_shape {
        }
        float_val: 0.07216878235340118
      }
    }
  }
}
node {
  name: "vgg_16/conv1/conv1_2/weights/Initializer/random_uniform/RandomUniform"
  op: "RandomUniform"
  input: "vgg_16/conv1/conv1_2/weights/Initializer/random_uniform/shape"
  attr {
    key: "T"
    value {
      type: DT_INT32
    }
  }
  attr {
    key: "_class"
    value {
      list {
        s: "loc:@vgg_16/conv1/conv1_2/weights"
      }
    }
  }
  attr {
    key: "dtype"
    value {
      type: DT_FLOAT
    }
  }
  attr {
    key: "seed"
    value {
      i: 3
    }
  }
  attr {
    key: "seed2"
    value {
      i: 27
    }
  }
}
node {
  name: "vgg_16/conv1/conv1_2/weights/Initializer/random_uniform/sub"
  op: "Sub"
  input: "vgg_16/conv1/conv1_2/weights/Initializer/random_uniform/max"
  input: "vgg_16/conv1/conv1_2/weights/Initializer/random_uniform/min"
  attr {
    key: "T"
    value {
      type: DT_FLOAT
    }
  }
  attr {
    key: "_class"
    value {
      list {
        s: "loc:@vgg_16/conv1/conv1_2/weights"
      }
    }
  }
}
node {
  name: "vgg_16/conv1/conv1_2/weights/Initializer/random_uniform/mul"
  op: "Mul"
  input: "vgg_16/conv1/conv1_2/weights/Initializer/random_uniform/RandomUniform"
  input: "vgg_16/conv1/conv1_2/weights/Initializer/random_uniform/sub"
  attr {
    key: "T"
    value {
      type: DT_FLOAT
    }
  }
  attr {
    key: "_class"
    value {
      list {
        s: "loc:@vgg_16/conv1/conv1_2/weights"
      }
    }
  }
}
node {
  name: "vgg_16/conv1/conv1_2/weights/Initializer/random_uniform"
  op: "Add"
  input: "vgg_16/conv1/conv1_2/weights/Initializer/random_uniform/mul"
  input: "vgg_16/conv1/conv1_2/weights/Initializer/random_uniform/min"
  attr {
    key: "T"
    value {
      type: DT_FLOAT
    }
  }
  attr {
    key: "_class"
    value {
      list {
        s: "loc:@vgg_16/conv1/conv1_2/weights"
      }
    }
  }
}
node {
  name: "vgg_16/conv1/conv1_2/weights"
  op: "VariableV2"
  attr {
    key: "_class"
    value {
      list {
        s: "loc:@vgg_16/conv1/conv1_2/weights"
      }
    }
  }
  attr {
    key: "container"
    value {
      s: ""
    }
  }
  attr {
    key: "dtype"
    value {
      type: DT_FLOAT
    }
  }
  attr {
    key: "shape"
    value {
      shape {
        dim {
          size: 3
        }
        dim {
          size: 3
        }
        dim {
          size: 64
        }
        dim {
          size: 64
        }
      }
    }
  }
  attr {
    key: "shared_name"
    value {
      s: ""
    }
  }
}
node {
  name: "vgg_16/conv1/conv1_2/weights/Assign"
  op: "Assign"
  input: "vgg_16/conv1/conv1_2/weights"
  input: "vgg_16/conv1/conv1_2/weights/Initializer/random_uniform"
  attr {
    key: "T"
    value {
      type: DT_FLOAT
    }
  }
  attr {
    key: "_class"
    value {
      list {
        s: "loc:@vgg_16/conv1/conv1_2/weights"
      }
    }
  }
  attr {
    key: "use_locking"
    value {
      b: true
    }
  }
  attr {
    key: "validate_shape"
    value {
      b: true
    }
  }
}
node {
  name: "vgg_16/conv1/conv1_2/weights/read"
  op: "Identity"
  input: "vgg_16/conv1/conv1_2/weights"
  attr {
    key: "T"
    value {
      type: DT_FLOAT
    }
  }
  attr {
    key: "_class"
    value {
      list {
        s: "loc:@vgg_16/conv1/conv1_2/weights"
      }
    }
  }
}
node {
  name: "vgg_16/conv1/conv1_2/kernel/Regularizer/l2_regularizer/scale"
  op: "Const"
  attr {
    key: "_class"
    value {
      list {
        s: "loc:@vgg_16/conv1/conv1_2/weights"
      }
    }
  }
  attr {
    key: "dtype"
    value {
      type: DT_FLOAT
    }
  }
  attr {
    key: "value"
    value {
      tensor {
        dtype: DT_FLOAT
        tensor_shape {
        }
        float_val: 0.0005000000237487257
      }
    }
  }
}
node {
  name: "vgg_16/conv1/conv1_2/kernel/Regularizer/l2_regularizer/L2Loss"
  op: "L2Loss"
  input: "vgg_16/conv1/conv1_2/weights/read"
  attr {
    key: "T"
    value {
      type: DT_FLOAT
    }
  }
  attr {
    key: "_class"
    value {
      list {
        s: "loc:@vgg_16/conv1/conv1_2/weights"
      }
    }
  }
}
node {
  name: "vgg_16/conv1/conv1_2/kernel/Regularizer/l2_regularizer"
  op: "Mul"
  input: "vgg_16/conv1/conv1_2/kernel/Regularizer/l2_regularizer/scale"
  input: "vgg_16/conv1/conv1_2/kernel/Regularizer/l2_regularizer/L2Loss"
  attr {
    key: "T"
    value {
      type: DT_FLOAT
    }
  }
  attr {
    key: "_class"
    value {
      list {
        s: "loc:@vgg_16/conv1/conv1_2/weights"
      }
    }
  }
}
node {
  name: "vgg_16/conv1/conv1_2/biases/Initializer/Const"
  op: "Const"
  attr {
    key: "_class"
    value {
      list {
        s: "loc:@vgg_16/conv1/conv1_2/biases"
      }
    }
  }
  attr {
    key: "dtype"
    value {
      type: DT_FLOAT
    }
  }
  attr {
    key: "value"
    value {
      tensor {
        dtype: DT_FLOAT
        tensor_shape {
          dim {
            size: 64
          }
        }
        float_val: 0.0
      }
    }
  }
}
node {
  name: "vgg_16/conv1/conv1_2/biases"
  op: "VariableV2"
  attr {
    key: "_class"
    value {
      list {
        s: "loc:@vgg_16/conv1/conv1_2/biases"
      }
    }
  }
  attr {
    key: "container"
    value {
      s: ""
    }
  }
  attr {
    key: "dtype"
    value {
      type: DT_FLOAT
    }
  }
  attr {
    key: "shape"
    value {
      shape {
        dim {
          size: 64
        }
      }
    }
  }
  attr {
    key: "shared_name"
    value {
      s: ""
    }
  }
}
node {
  name: "vgg_16/conv1/conv1_2/biases/Assign"
  op: "Assign"
  input: "vgg_16/conv1/conv1_2/biases"
  input: "vgg_16/conv1/conv1_2/biases/Initializer/Const"
  attr {
    key: "T"
    value {
      type: DT_FLOAT
    }
  }
  attr {
    key: "_class"
    value {
      list {
        s: "loc:@vgg_16/conv1/conv1_2/biases"
      }
    }
  }
  attr {
    key: "use_locking"
    value {
      b: true
    }
  }
  attr {
    key: "validate_shape"
    value {
      b: true
    }
  }
}
node {
  name: "vgg_16/conv1/conv1_2/biases/read"
  op: "Identity"
  input: "vgg_16/conv1/conv1_2/biases"
  attr {
    key: "T"
    value {
      type: DT_FLOAT
    }
  }
  attr {
    key: "_class"
    value {
      list {
        s: "loc:@vgg_16/conv1/conv1_2/biases"
      }
    }
  }
}
node {
  name: "vgg_16/conv1/conv1_2/dilation_rate"
  op: "Const"
  attr {
    key: "dtype"
    value {
      type: DT_INT32
    }
  }
  attr {
    key: "value"
    value {
      tensor {
        dtype: DT_INT32
        tensor_shape {
          dim {
            size: 2
          }
        }
        tensor_content: "\001\000\000\000\001\000\000\000"
      }
    }
  }
}
node {
  name: "vgg_16/conv1/conv1_2/Conv2D"
  op: "Conv2D"
  input: "vgg_16/conv1/conv1_1/Relu"
  input: "vgg_16/conv1/conv1_2/weights/read"
  attr {
    key: "T"
    value {
      type: DT_FLOAT
    }
  }
  attr {
    key: "data_format"
    value {
      s: "NHWC"
    }
  }
  attr {
    key: "dilations"
    value {
      list {
        i: 1
        i: 1
        i: 1
        i: 1
      }
    }
  }
  attr {
    key: "padding"
    value {
      s: "SAME"
    }
  }
  attr {
    key: "strides"
    value {
      list {
        i: 1
        i: 1
        i: 1
        i: 1
      }
    }
  }
  attr {
    key: "use_cudnn_on_gpu"
    value {
      b: true
    }
  }
}
node {
  name: "vgg_16/conv1/conv1_2/BiasAdd"
  op: "BiasAdd"
  input: "vgg_16/conv1/conv1_2/Conv2D"
  input: "vgg_16/conv1/conv1_2/biases/read"
  attr {
    key: "T"
    value {
      type: DT_FLOAT
    }
  }
  attr {
    key: "data_format"
    value {
      s: "NHWC"
    }
  }
}
node {
  name: "vgg_16/conv1/conv1_2/Relu"
  op: "Relu"
  input: "vgg_16/conv1/conv1_2/BiasAdd"
  attr {
    key: "T"
    value {
      type: DT_FLOAT
    }
  }
}
node {
  name: "vgg_16/pool1/MaxPool"
  op: "MaxPool"
  input: "vgg_16/conv1/conv1_2/Relu"
  attr {
    key: "T"
    value {
      type: DT_FLOAT
    }
  }
  attr {
    key: "data_format"
    value {
      s: "NHWC"
    }
  }
  attr {
    key: "ksize"
    value {
      list {
        i: 1
        i: 2
        i: 2
        i: 1
      }
    }
  }
  attr {
    key: "padding"
    value {
      s: "SAME"
    }
  }
  attr {
    key: "strides"
    value {
      list {
        i: 1
        i: 2
        i: 2
        i: 1
      }
    }
  }
}
node {
  name: "vgg_16/conv2/conv2_1/weights/Initializer/random_uniform/shape"
  op: "Const"
  attr {
    key: "_class"
    value {
      list {
        s: "loc:@vgg_16/conv2/conv2_1/weights"
      }
    }
  }
  attr {
    key: "dtype"
    value {
      type: DT_INT32
    }
  }
  attr {
    key: "value"
    value {
      tensor {
        dtype: DT_INT32
        tensor_shape {
          dim {
            size: 4
          }
        }
        tensor_content: "\003\000\000\000\003\000\000\000@\000\000\000\200\000\000\000"
      }
    }
  }
}
node {
  name: "vgg_16/conv2/conv2_1/weights/Initializer/random_uniform/min"
  op: "Const"
  attr {
    key: "_class"
    value {
      list {
        s: "loc:@vgg_16/conv2/conv2_1/weights"
      }
    }
  }
  attr {
    key: "dtype"
    value {
      type: DT_FLOAT
    }
  }
  attr {
    key: "value"
    value {
      tensor {
        dtype: DT_FLOAT
        tensor_shape {
        }
        float_val: -0.0589255653321743
      }
    }
  }
}
node {
  name: "vgg_16/conv2/conv2_1/weights/Initializer/random_uniform/max"
  op: "Const"
  attr {
    key: "_class"
    value {
      list {
        s: "loc:@vgg_16/conv2/conv2_1/weights"
      }
    }
  }
  attr {
    key: "dtype"
    value {
      type: DT_FLOAT
    }
  }
  attr {
    key: "value"
    value {
      tensor {
        dtype: DT_FLOAT
        tensor_shape {
        }
        float_val: 0.0589255653321743
      }
    }
  }
}
node {
  name: "vgg_16/conv2/conv2_1/weights/Initializer/random_uniform/RandomUniform"
  op: "RandomUniform"
  input: "vgg_16/conv2/conv2_1/weights/Initializer/random_uniform/shape"
  attr {
    key: "T"
    value {
      type: DT_INT32
    }
  }
  attr {
    key: "_class"
    value {
      list {
        s: "loc:@vgg_16/conv2/conv2_1/weights"
      }
    }
  }
  attr {
    key: "dtype"
    value {
      type: DT_FLOAT
    }
  }
  attr {
    key: "seed"
    value {
      i: 3
    }
  }
  attr {
    key: "seed2"
    value {
      i: 49
    }
  }
}
node {
  name: "vgg_16/conv2/conv2_1/weights/Initializer/random_uniform/sub"
  op: "Sub"
  input: "vgg_16/conv2/conv2_1/weights/Initializer/random_uniform/max"
  input: "vgg_16/conv2/conv2_1/weights/Initializer/random_uniform/min"
  attr {
    key: "T"
    value {
      type: DT_FLOAT
    }
  }
  attr {
    key: "_class"
    value {
      list {
        s: "loc:@vgg_16/conv2/conv2_1/weights"
      }
    }
  }
}
node {
  name: "vgg_16/conv2/conv2_1/weights/Initializer/random_uniform/mul"
  op: "Mul"
  input: "vgg_16/conv2/conv2_1/weights/Initializer/random_uniform/RandomUniform"
  input: "vgg_16/conv2/conv2_1/weights/Initializer/random_uniform/sub"
  attr {
    key: "T"
    value {
      type: DT_FLOAT
    }
  }
  attr {
    key: "_class"
    value {
      list {
        s: "loc:@vgg_16/conv2/conv2_1/weights"
      }
    }
  }
}
node {
  name: "vgg_16/conv2/conv2_1/weights/Initializer/random_uniform"
  op: "Add"
  input: "vgg_16/conv2/conv2_1/weights/Initializer/random_uniform/mul"
  input: "vgg_16/conv2/conv2_1/weights/Initializer/random_uniform/min"
  attr {
    key: "T"
    value {
      type: DT_FLOAT
    }
  }
  attr {
    key: "_class"
    value {
      list {
        s: "loc:@vgg_16/conv2/conv2_1/weights"
      }
    }
  }
}
node {
  name: "vgg_16/conv2/conv2_1/weights"
  op: "VariableV2"
  attr {
    key: "_class"
    value {
      list {
        s: "loc:@vgg_16/conv2/conv2_1/weights"
      }
    }
  }
  attr {
    key: "container"
    value {
      s: ""
    }
  }
  attr {
    key: "dtype"
    value {
      type: DT_FLOAT
    }
  }
  attr {
    key: "shape"
    value {
      shape {
        dim {
          size: 3
        }
        dim {
          size: 3
        }
        dim {
          size: 64
        }
        dim {
          size: 128
        }
      }
    }
  }
  attr {
    key: "shared_name"
    value {
      s: ""
    }
  }
}
node {
  name: "vgg_16/conv2/conv2_1/weights/Assign"
  op: "Assign"
  input: "vgg_16/conv2/conv2_1/weights"
  input: "vgg_16/conv2/conv2_1/weights/Initializer/random_uniform"
  attr {
    key: "T"
    value {
      type: DT_FLOAT
    }
  }
  attr {
    key: "_class"
    value {
      list {
        s: "loc:@vgg_16/conv2/conv2_1/weights"
      }
    }
  }
  attr {
    key: "use_locking"
    value {
      b: true
    }
  }
  attr {
    key: "validate_shape"
    value {
      b: true
    }
  }
}
node {
  name: "vgg_16/conv2/conv2_1/weights/read"
  op: "Identity"
  input: "vgg_16/conv2/conv2_1/weights"
  attr {
    key: "T"
    value {
      type: DT_FLOAT
    }
  }
  attr {
    key: "_class"
    value {
      list {
        s: "loc:@vgg_16/conv2/conv2_1/weights"
      }
    }
  }
}
node {
  name: "vgg_16/conv2/conv2_1/kernel/Regularizer/l2_regularizer/scale"
  op: "Const"
  attr {
    key: "_class"
    value {
      list {
        s: "loc:@vgg_16/conv2/conv2_1/weights"
      }
    }
  }
  attr {
    key: "dtype"
    value {
      type: DT_FLOAT
    }
  }
  attr {
    key: "value"
    value {
      tensor {
        dtype: DT_FLOAT
        tensor_shape {
        }
        float_val: 0.0005000000237487257
      }
    }
  }
}
node {
  name: "vgg_16/conv2/conv2_1/kernel/Regularizer/l2_regularizer/L2Loss"
  op: "L2Loss"
  input: "vgg_16/conv2/conv2_1/weights/read"
  attr {
    key: "T"
    value {
      type: DT_FLOAT
    }
  }
  attr {
    key: "_class"
    value {
      list {
        s: "loc:@vgg_16/conv2/conv2_1/weights"
      }
    }
  }
}
node {
  name: "vgg_16/conv2/conv2_1/kernel/Regularizer/l2_regularizer"
  op: "Mul"
  input: "vgg_16/conv2/conv2_1/kernel/Regularizer/l2_regularizer/scale"
  input: "vgg_16/conv2/conv2_1/kernel/Regularizer/l2_regularizer/L2Loss"
  attr {
    key: "T"
    value {
      type: DT_FLOAT
    }
  }
  attr {
    key: "_class"
    value {
      list {
        s: "loc:@vgg_16/conv2/conv2_1/weights"
      }
    }
  }
}
node {
  name: "vgg_16/conv2/conv2_1/biases/Initializer/Const"
  op: "Const"
  attr {
    key: "_class"
    value {
      list {
        s: "loc:@vgg_16/conv2/conv2_1/biases"
      }
    }
  }
  attr {
    key: "dtype"
    value {
      type: DT_FLOAT
    }
  }
  attr {
    key: "value"
    value {
      tensor {
        dtype: DT_FLOAT
        tensor_shape {
          dim {
            size: 128
          }
        }
        float_val: 0.0
      }
    }
  }
}
node {
  name: "vgg_16/conv2/conv2_1/biases"
  op: "VariableV2"
  attr {
    key: "_class"
    value {
      list {
        s: "loc:@vgg_16/conv2/conv2_1/biases"
      }
    }
  }
  attr {
    key: "container"
    value {
      s: ""
    }
  }
  attr {
    key: "dtype"
    value {
      type: DT_FLOAT
    }
  }
  attr {
    key: "shape"
    value {
      shape {
        dim {
          size: 128
        }
      }
    }
  }
  attr {
    key: "shared_name"
    value {
      s: ""
    }
  }
}
node {
  name: "vgg_16/conv2/conv2_1/biases/Assign"
  op: "Assign"
  input: "vgg_16/conv2/conv2_1/biases"
  input: "vgg_16/conv2/conv2_1/biases/Initializer/Const"
  attr {
    key: "T"
    value {
      type: DT_FLOAT
    }
  }
  attr {
    key: "_class"
    value {
      list {
        s: "loc:@vgg_16/conv2/conv2_1/biases"
      }
    }
  }
  attr {
    key: "use_locking"
    value {
      b: true
    }
  }
  attr {
    key: "validate_shape"
    value {
      b: true
    }
  }
}
node {
  name: "vgg_16/conv2/conv2_1/biases/read"
  op: "Identity"
  input: "vgg_16/conv2/conv2_1/biases"
  attr {
    key: "T"
    value {
      type: DT_FLOAT
    }
  }
  attr {
    key: "_class"
    value {
      list {
        s: "loc:@vgg_16/conv2/conv2_1/biases"
      }
    }
  }
}
node {
  name: "vgg_16/conv2/conv2_1/dilation_rate"
  op: "Const"
  attr {
    key: "dtype"
    value {
      type: DT_INT32
    }
  }
  attr {
    key: "value"
    value {
      tensor {
        dtype: DT_INT32
        tensor_shape {
          dim {
            size: 2
          }
        }
        tensor_content: "\001\000\000\000\001\000\000\000"
      }
    }
  }
}
node {
  name: "vgg_16/conv2/conv2_1/Conv2D"
  op: "Conv2D"
  input: "vgg_16/pool1/MaxPool"
  input: "vgg_16/conv2/conv2_1/weights/read"
  attr {
    key: "T"
    value {
      type: DT_FLOAT
    }
  }
  attr {
    key: "data_format"
    value {
      s: "NHWC"
    }
  }
  attr {
    key: "dilations"
    value {
      list {
        i: 1
        i: 1
        i: 1
        i: 1
      }
    }
  }
  attr {
    key: "padding"
    value {
      s: "SAME"
    }
  }
  attr {
    key: "strides"
    value {
      list {
        i: 1
        i: 1
        i: 1
        i: 1
      }
    }
  }
  attr {
    key: "use_cudnn_on_gpu"
    value {
      b: true
    }
  }
}
node {
  name: "vgg_16/conv2/conv2_1/BiasAdd"
  op: "BiasAdd"
  input: "vgg_16/conv2/conv2_1/Conv2D"
  input: "vgg_16/conv2/conv2_1/biases/read"
  attr {
    key: "T"
    value {
      type: DT_FLOAT
    }
  }
  attr {
    key: "data_format"
    value {
      s: "NHWC"
    }
  }
}
node {
  name: "vgg_16/conv2/conv2_1/Relu"
  op: "Relu"
  input: "vgg_16/conv2/conv2_1/BiasAdd"
  attr {
    key: "T"
    value {
      type: DT_FLOAT
    }
  }
}
node {
  name: "vgg_16/conv2/conv2_2/weights/Initializer/random_uniform/shape"
  op: "Const"
  attr {
    key: "_class"
    value {
      list {
        s: "loc:@vgg_16/conv2/conv2_2/weights"
      }
    }
  }
  attr {
    key: "dtype"
    value {
      type: DT_INT32
    }
  }
  attr {
    key: "value"
    value {
      tensor {
        dtype: DT_INT32
        tensor_shape {
          dim {
            size: 4
          }
        }
        tensor_content: "\003\000\000\000\003\000\000\000\200\000\000\000\200\000\000\000"
      }
    }
  }
}
node {
  name: "vgg_16/conv2/conv2_2/weights/Initializer/random_uniform/min"
  op: "Const"
  attr {
    key: "_class"
    value {
      list {
        s: "loc:@vgg_16/conv2/conv2_2/weights"
      }
    }
  }
  attr {
    key: "dtype"
    value {
      type: DT_FLOAT
    }
  }
  attr {
    key: "value"
    value {
      tensor {
        dtype: DT_FLOAT
        tensor_shape {
        }
        float_val: -0.05103103816509247
      }
    }
  }
}
node {
  name: "vgg_16/conv2/conv2_2/weights/Initializer/random_uniform/max"
  op: "Const"
  attr {
    key: "_class"
    value {
      list {
        s: "loc:@vgg_16/conv2/conv2_2/weights"
      }
    }
  }
  attr {
    key: "dtype"
    value {
      type: DT_FLOAT
    }
  }
  attr {
    key: "value"
    value {
      tensor {
        dtype: DT_FLOAT
        tensor_shape {
        }
        float_val: 0.05103103816509247
      }
    }
  }
}
node {
  name: "vgg_16/conv2/conv2_2/weights/Initializer/random_uniform/RandomUniform"
  op: "RandomUniform"
  input: "vgg_16/conv2/conv2_2/weights/Initializer/random_uniform/shape"
  attr {
    key: "T"
    value {
      type: DT_INT32
    }
  }
  attr {
    key: "_class"
    value {
      list {
        s: "loc:@vgg_16/conv2/conv2_2/weights"
      }
    }
  }
  attr {
    key: "dtype"
    value {
      type: DT_FLOAT
    }
  }
  attr {
    key: "seed"
    value {
      i: 3
    }
  }
  attr {
    key: "seed2"
    value {
      i: 70
    }
  }
}
node {
  name: "vgg_16/conv2/conv2_2/weights/Initializer/random_uniform/sub"
  op: "Sub"
  input: "vgg_16/conv2/conv2_2/weights/Initializer/random_uniform/max"
  input: "vgg_16/conv2/conv2_2/weights/Initializer/random_uniform/min"
  attr {
    key: "T"
    value {
      type: DT_FLOAT
    }
  }
  attr {
    key: "_class"
    value {
      list {
        s: "loc:@vgg_16/conv2/conv2_2/weights"
      }
    }
  }
}
node {
  name: "vgg_16/conv2/conv2_2/weights/Initializer/random_uniform/mul"
  op: "Mul"
  input: "vgg_16/conv2/conv2_2/weights/Initializer/random_uniform/RandomUniform"
  input: "vgg_16/conv2/conv2_2/weights/Initializer/random_uniform/sub"
  attr {
    key: "T"
    value {
      type: DT_FLOAT
    }
  }
  attr {
    key: "_class"
    value {
      list {
        s: "loc:@vgg_16/conv2/conv2_2/weights"
      }
    }
  }
}
node {
  name: "vgg_16/conv2/conv2_2/weights/Initializer/random_uniform"
  op: "Add"
  input: "vgg_16/conv2/conv2_2/weights/Initializer/random_uniform/mul"
  input: "vgg_16/conv2/conv2_2/weights/Initializer/random_uniform/min"
  attr {
    key: "T"
    value {
      type: DT_FLOAT
    }
  }
  attr {
    key: "_class"
    value {
      list {
        s: "loc:@vgg_16/conv2/conv2_2/weights"
      }
    }
  }
}
node {
  name: "vgg_16/conv2/conv2_2/weights"
  op: "VariableV2"
  attr {
    key: "_class"
    value {
      list {
        s: "loc:@vgg_16/conv2/conv2_2/weights"
      }
    }
  }
  attr {
    key: "container"
    value {
      s: ""
    }
  }
  attr {
    key: "dtype"
    value {
      type: DT_FLOAT
    }
  }
  attr {
    key: "shape"
    value {
      shape {
        dim {
          size: 3
        }
        dim {
          size: 3
        }
        dim {
          size: 128
        }
        dim {
          size: 128
        }
      }
    }
  }
  attr {
    key: "shared_name"
    value {
      s: ""
    }
  }
}
node {
  name: "vgg_16/conv2/conv2_2/weights/Assign"
  op: "Assign"
  input: "vgg_16/conv2/conv2_2/weights"
  input: "vgg_16/conv2/conv2_2/weights/Initializer/random_uniform"
  attr {
    key: "T"
    value {
      type: DT_FLOAT
    }
  }
  attr {
    key: "_class"
    value {
      list {
        s: "loc:@vgg_16/conv2/conv2_2/weights"
      }
    }
  }
  attr {
    key: "use_locking"
    value {
      b: true
    }
  }
  attr {
    key: "validate_shape"
    value {
      b: true
    }
  }
}
node {
  name: "vgg_16/conv2/conv2_2/weights/read"
  op: "Identity"
  input: "vgg_16/conv2/conv2_2/weights"
  attr {
    key: "T"
    value {
      type: DT_FLOAT
    }
  }
  attr {
    key: "_class"
    value {
      list {
        s: "loc:@vgg_16/conv2/conv2_2/weights"
      }
    }
  }
}
node {
  name: "vgg_16/conv2/conv2_2/kernel/Regularizer/l2_regularizer/scale"
  op: "Const"
  attr {
    key: "_class"
    value {
      list {
        s: "loc:@vgg_16/conv2/conv2_2/weights"
      }
    }
  }
  attr {
    key: "dtype"
    value {
      type: DT_FLOAT
    }
  }
  attr {
    key: "value"
    value {
      tensor {
        dtype: DT_FLOAT
        tensor_shape {
        }
        float_val: 0.0005000000237487257
      }
    }
  }
}
node {
  name: "vgg_16/conv2/conv2_2/kernel/Regularizer/l2_regularizer/L2Loss"
  op: "L2Loss"
  input: "vgg_16/conv2/conv2_2/weights/read"
  attr {
    key: "T"
    value {
      type: DT_FLOAT
    }
  }
  attr {
    key: "_class"
    value {
      list {
        s: "loc:@vgg_16/conv2/conv2_2/weights"
      }
    }
  }
}
node {
  name: "vgg_16/conv2/conv2_2/kernel/Regularizer/l2_regularizer"
  op: "Mul"
  input: "vgg_16/conv2/conv2_2/kernel/Regularizer/l2_regularizer/scale"
  input: "vgg_16/conv2/conv2_2/kernel/Regularizer/l2_regularizer/L2Loss"
  attr {
    key: "T"
    value {
      type: DT_FLOAT
    }
  }
  attr {
    key: "_class"
    value {
      list {
        s: "loc:@vgg_16/conv2/conv2_2/weights"
      }
    }
  }
}
node {
  name: "vgg_16/conv2/conv2_2/biases/Initializer/Const"
  op: "Const"
  attr {
    key: "_class"
    value {
      list {
        s: "loc:@vgg_16/conv2/conv2_2/biases"
      }
    }
  }
  attr {
    key: "dtype"
    value {
      type: DT_FLOAT
    }
  }
  attr {
    key: "value"
    value {
      tensor {
        dtype: DT_FLOAT
        tensor_shape {
          dim {
            size: 128
          }
        }
        float_val: 0.0
      }
    }
  }
}
node {
  name: "vgg_16/conv2/conv2_2/biases"
  op: "VariableV2"
  attr {
    key: "_class"
    value {
      list {
        s: "loc:@vgg_16/conv2/conv2_2/biases"
      }
    }
  }
  attr {
    key: "container"
    value {
      s: ""
    }
  }
  attr {
    key: "dtype"
    value {
      type: DT_FLOAT
    }
  }
  attr {
    key: "shape"
    value {
      shape {
        dim {
          size: 128
        }
      }
    }
  }
  attr {
    key: "shared_name"
    value {
      s: ""
    }
  }
}
node {
  name: "vgg_16/conv2/conv2_2/biases/Assign"
  op: "Assign"
  input: "vgg_16/conv2/conv2_2/biases"
  input: "vgg_16/conv2/conv2_2/biases/Initializer/Const"
  attr {
    key: "T"
    value {
      type: DT_FLOAT
    }
  }
  attr {
    key: "_class"
    value {
      list {
        s: "loc:@vgg_16/conv2/conv2_2/biases"
      }
    }
  }
  attr {
    key: "use_locking"
    value {
      b: true
    }
  }
  attr {
    key: "validate_shape"
    value {
      b: true
    }
  }
}
node {
  name: "vgg_16/conv2/conv2_2/biases/read"
  op: "Identity"
  input: "vgg_16/conv2/conv2_2/biases"
  attr {
    key: "T"
    value {
      type: DT_FLOAT
    }
  }
  attr {
    key: "_class"
    value {
      list {
        s: "loc:@vgg_16/conv2/conv2_2/biases"
      }
    }
  }
}
node {
  name: "vgg_16/conv2/conv2_2/dilation_rate"
  op: "Const"
  attr {
    key: "dtype"
    value {
      type: DT_INT32
    }
  }
  attr {
    key: "value"
    value {
      tensor {
        dtype: DT_INT32
        tensor_shape {
          dim {
            size: 2
          }
        }
        tensor_content: "\001\000\000\000\001\000\000\000"
      }
    }
  }
}
node {
  name: "vgg_16/conv2/conv2_2/Conv2D"
  op: "Conv2D"
  input: "vgg_16/conv2/conv2_1/Relu"
  input: "vgg_16/conv2/conv2_2/weights/read"
  attr {
    key: "T"
    value {
      type: DT_FLOAT
    }
  }
  attr {
    key: "data_format"
    value {
      s: "NHWC"
    }
  }
  attr {
    key: "dilations"
    value {
      list {
        i: 1
        i: 1
        i: 1
        i: 1
      }
    }
  }
  attr {
    key: "padding"
    value {
      s: "SAME"
    }
  }
  attr {
    key: "strides"
    value {
      list {
        i: 1
        i: 1
        i: 1
        i: 1
      }
    }
  }
  attr {
    key: "use_cudnn_on_gpu"
    value {
      b: true
    }
  }
}
node {
  name: "vgg_16/conv2/conv2_2/BiasAdd"
  op: "BiasAdd"
  input: "vgg_16/conv2/conv2_2/Conv2D"
  input: "vgg_16/conv2/conv2_2/biases/read"
  attr {
    key: "T"
    value {
      type: DT_FLOAT
    }
  }
  attr {
    key: "data_format"
    value {
      s: "NHWC"
    }
  }
}
node {
  name: "vgg_16/conv2/conv2_2/Relu"
  op: "Relu"
  input: "vgg_16/conv2/conv2_2/BiasAdd"
  attr {
    key: "T"
    value {
      type: DT_FLOAT
    }
  }
}
node {
  name: "vgg_16/pool2/MaxPool"
  op: "MaxPool"
  input: "vgg_16/conv2/conv2_2/Relu"
  attr {
    key: "T"
    value {
      type: DT_FLOAT
    }
  }
  attr {
    key: "data_format"
    value {
      s: "NHWC"
    }
  }
  attr {
    key: "ksize"
    value {
      list {
        i: 1
        i: 2
        i: 2
        i: 1
      }
    }
  }
  attr {
    key: "padding"
    value {
      s: "SAME"
    }
  }
  attr {
    key: "strides"
    value {
      list {
        i: 1
        i: 2
        i: 2
        i: 1
      }
    }
  }
}
node {
  name: "vgg_16/conv3/conv3_1/weights/Initializer/random_uniform/shape"
  op: "Const"
  attr {
    key: "_class"
    value {
      list {
        s: "loc:@vgg_16/conv3/conv3_1/weights"
      }
    }
  }
  attr {
    key: "dtype"
    value {
      type: DT_INT32
    }
  }
  attr {
    key: "value"
    value {
      tensor {
        dtype: DT_INT32
        tensor_shape {
          dim {
            size: 4
          }
        }
        tensor_content: "\003\000\000\000\003\000\000\000\200\000\000\000\000\001\000\000"
      }
    }
  }
}
node {
  name: "vgg_16/conv3/conv3_1/weights/Initializer/random_uniform/min"
  op: "Const"
  attr {
    key: "_class"
    value {
      list {
        s: "loc:@vgg_16/conv3/conv3_1/weights"
      }
    }
  }
  attr {
    key: "dtype"
    value {
      type: DT_FLOAT
    }
  }
  attr {
    key: "value"
    value {
      tensor {
        dtype: DT_FLOAT
        tensor_shape {
        }
        float_val: -0.0416666679084301
      }
    }
  }
}
node {
  name: "vgg_16/conv3/conv3_1/weights/Initializer/random_uniform/max"
  op: "Const"
  attr {
    key: "_class"
    value {
      list {
        s: "loc:@vgg_16/conv3/conv3_1/weights"
      }
    }
  }
  attr {
    key: "dtype"
    value {
      type: DT_FLOAT
    }
  }
  attr {
    key: "value"
    value {
      tensor {
        dtype: DT_FLOAT
        tensor_shape {
        }
        float_val: 0.0416666679084301
      }
    }
  }
}
node {
  name: "vgg_16/conv3/conv3_1/weights/Initializer/random_uniform/RandomUniform"
  op: "RandomUniform"
  input: "vgg_16/conv3/conv3_1/weights/Initializer/random_uniform/shape"
  attr {
    key: "T"
    value {
      type: DT_INT32
    }
  }
  attr {
    key: "_class"
    value {
      list {
        s: "loc:@vgg_16/conv3/conv3_1/weights"
      }
    }
  }
  attr {
    key: "dtype"
    value {
      type: DT_FLOAT
    }
  }
  attr {
    key: "seed"
    value {
      i: 3
    }
  }
  attr {
    key: "seed2"
    value {
      i: 92
    }
  }
}
node {
  name: "vgg_16/conv3/conv3_1/weights/Initializer/random_uniform/sub"
  op: "Sub"
  input: "vgg_16/conv3/conv3_1/weights/Initializer/random_uniform/max"
  input: "vgg_16/conv3/conv3_1/weights/Initializer/random_uniform/min"
  attr {
    key: "T"
    value {
      type: DT_FLOAT
    }
  }
  attr {
    key: "_class"
    value {
      list {
        s: "loc:@vgg_16/conv3/conv3_1/weights"
      }
    }
  }
}
node {
  name: "vgg_16/conv3/conv3_1/weights/Initializer/random_uniform/mul"
  op: "Mul"
  input: "vgg_16/conv3/conv3_1/weights/Initializer/random_uniform/RandomUniform"
  input: "vgg_16/conv3/conv3_1/weights/Initializer/random_uniform/sub"
  attr {
    key: "T"
    value {
      type: DT_FLOAT
    }
  }
  attr {
    key: "_class"
    value {
      list {
        s: "loc:@vgg_16/conv3/conv3_1/weights"
      }
    }
  }
}
node {
  name: "vgg_16/conv3/conv3_1/weights/Initializer/random_uniform"
  op: "Add"
  input: "vgg_16/conv3/conv3_1/weights/Initializer/random_uniform/mul"
  input: "vgg_16/conv3/conv3_1/weights/Initializer/random_uniform/min"
  attr {
    key: "T"
    value {
      type: DT_FLOAT
    }
  }
  attr {
    key: "_class"
    value {
      list {
        s: "loc:@vgg_16/conv3/conv3_1/weights"
      }
    }
  }
}
node {
  name: "vgg_16/conv3/conv3_1/weights"
  op: "VariableV2"
  attr {
    key: "_class"
    value {
      list {
        s: "loc:@vgg_16/conv3/conv3_1/weights"
      }
    }
  }
  attr {
    key: "container"
    value {
      s: ""
    }
  }
  attr {
    key: "dtype"
    value {
      type: DT_FLOAT
    }
  }
  attr {
    key: "shape"
    value {
      shape {
        dim {
          size: 3
        }
        dim {
          size: 3
        }
        dim {
          size: 128
        }
        dim {
          size: 256
        }
      }
    }
  }
  attr {
    key: "shared_name"
    value {
      s: ""
    }
  }
}
node {
  name: "vgg_16/conv3/conv3_1/weights/Assign"
  op: "Assign"
  input: "vgg_16/conv3/conv3_1/weights"
  input: "vgg_16/conv3/conv3_1/weights/Initializer/random_uniform"
  attr {
    key: "T"
    value {
      type: DT_FLOAT
    }
  }
  attr {
    key: "_class"
    value {
      list {
        s: "loc:@vgg_16/conv3/conv3_1/weights"
      }
    }
  }
  attr {
    key: "use_locking"
    value {
      b: true
    }
  }
  attr {
    key: "validate_shape"
    value {
      b: true
    }
  }
}
node {
  name: "vgg_16/conv3/conv3_1/weights/read"
  op: "Identity"
  input: "vgg_16/conv3/conv3_1/weights"
  attr {
    key: "T"
    value {
      type: DT_FLOAT
    }
  }
  attr {
    key: "_class"
    value {
      list {
        s: "loc:@vgg_16/conv3/conv3_1/weights"
      }
    }
  }
}
node {
  name: "vgg_16/conv3/conv3_1/kernel/Regularizer/l2_regularizer/scale"
  op: "Const"
  attr {
    key: "_class"
    value {
      list {
        s: "loc:@vgg_16/conv3/conv3_1/weights"
      }
    }
  }
  attr {
    key: "dtype"
    value {
      type: DT_FLOAT
    }
  }
  attr {
    key: "value"
    value {
      tensor {
        dtype: DT_FLOAT
        tensor_shape {
        }
        float_val: 0.0005000000237487257
      }
    }
  }
}
node {
  name: "vgg_16/conv3/conv3_1/kernel/Regularizer/l2_regularizer/L2Loss"
  op: "L2Loss"
  input: "vgg_16/conv3/conv3_1/weights/read"
  attr {
    key: "T"
    value {
      type: DT_FLOAT
    }
  }
  attr {
    key: "_class"
    value {
      list {
        s: "loc:@vgg_16/conv3/conv3_1/weights"
      }
    }
  }
}
node {
  name: "vgg_16/conv3/conv3_1/kernel/Regularizer/l2_regularizer"
  op: "Mul"
  input: "vgg_16/conv3/conv3_1/kernel/Regularizer/l2_regularizer/scale"
  input: "vgg_16/conv3/conv3_1/kernel/Regularizer/l2_regularizer/L2Loss"
  attr {
    key: "T"
    value {
      type: DT_FLOAT
    }
  }
  attr {
    key: "_class"
    value {
      list {
        s: "loc:@vgg_16/conv3/conv3_1/weights"
      }
    }
  }
}
node {
  name: "vgg_16/conv3/conv3_1/biases/Initializer/Const"
  op: "Const"
  attr {
    key: "_class"
    value {
      list {
        s: "loc:@vgg_16/conv3/conv3_1/biases"
      }
    }
  }
  attr {
    key: "dtype"
    value {
      type: DT_FLOAT
    }
  }
  attr {
    key: "value"
    value {
      tensor {
        dtype: DT_FLOAT
        tensor_shape {
          dim {
            size: 256
          }
        }
        float_val: 0.0
      }
    }
  }
}
node {
  name: "vgg_16/conv3/conv3_1/biases"
  op: "VariableV2"
  attr {
    key: "_class"
    value {
      list {
        s: "loc:@vgg_16/conv3/conv3_1/biases"
      }
    }
  }
  attr {
    key: "container"
    value {
      s: ""
    }
  }
  attr {
    key: "dtype"
    value {
      type: DT_FLOAT
    }
  }
  attr {
    key: "shape"
    value {
      shape {
        dim {
          size: 256
        }
      }
    }
  }
  attr {
    key: "shared_name"
    value {
      s: ""
    }
  }
}
node {
  name: "vgg_16/conv3/conv3_1/biases/Assign"
  op: "Assign"
  input: "vgg_16/conv3/conv3_1/biases"
  input: "vgg_16/conv3/conv3_1/biases/Initializer/Const"
  attr {
    key: "T"
    value {
      type: DT_FLOAT
    }
  }
  attr {
    key: "_class"
    value {
      list {
        s: "loc:@vgg_16/conv3/conv3_1/biases"
      }
    }
  }
  attr {
    key: "use_locking"
    value {
      b: true
    }
  }
  attr {
    key: "validate_shape"
    value {
      b: true
    }
  }
}
node {
  name: "vgg_16/conv3/conv3_1/biases/read"
  op: "Identity"
  input: "vgg_16/conv3/conv3_1/biases"
  attr {
    key: "T"
    value {
      type: DT_FLOAT
    }
  }
  attr {
    key: "_class"
    value {
      list {
        s: "loc:@vgg_16/conv3/conv3_1/biases"
      }
    }
  }
}
node {
  name: "vgg_16/conv3/conv3_1/dilation_rate"
  op: "Const"
  attr {
    key: "dtype"
    value {
      type: DT_INT32
    }
  }
  attr {
    key: "value"
    value {
      tensor {
        dtype: DT_INT32
        tensor_shape {
          dim {
            size: 2
          }
        }
        tensor_content: "\001\000\000\000\001\000\000\000"
      }
    }
  }
}
node {
  name: "vgg_16/conv3/conv3_1/Conv2D"
  op: "Conv2D"
  input: "vgg_16/pool2/MaxPool"
  input: "vgg_16/conv3/conv3_1/weights/read"
  attr {
    key: "T"
    value {
      type: DT_FLOAT
    }
  }
  attr {
    key: "data_format"
    value {
      s: "NHWC"
    }
  }
  attr {
    key: "dilations"
    value {
      list {
        i: 1
        i: 1
        i: 1
        i: 1
      }
    }
  }
  attr {
    key: "padding"
    value {
      s: "SAME"
    }
  }
  attr {
    key: "strides"
    value {
      list {
        i: 1
        i: 1
        i: 1
        i: 1
      }
    }
  }
  attr {
    key: "use_cudnn_on_gpu"
    value {
      b: true
    }
  }
}
node {
  name: "vgg_16/conv3/conv3_1/BiasAdd"
  op: "BiasAdd"
  input: "vgg_16/conv3/conv3_1/Conv2D"
  input: "vgg_16/conv3/conv3_1/biases/read"
  attr {
    key: "T"
    value {
      type: DT_FLOAT
    }
  }
  attr {
    key: "data_format"
    value {
      s: "NHWC"
    }
  }
}
node {
  name: "vgg_16/conv3/conv3_1/Relu"
  op: "Relu"
  input: "vgg_16/conv3/conv3_1/BiasAdd"
  attr {
    key: "T"
    value {
      type: DT_FLOAT
    }
  }
}
node {
  name: "vgg_16/conv3/conv3_2/weights/Initializer/random_uniform/shape"
  op: "Const"
  attr {
    key: "_class"
    value {
      list {
        s: "loc:@vgg_16/conv3/conv3_2/weights"
      }
    }
  }
  attr {
    key: "dtype"
    value {
      type: DT_INT32
    }
  }
  attr {
    key: "value"
    value {
      tensor {
        dtype: DT_INT32
        tensor_shape {
          dim {
            size: 4
          }
        }
        tensor_content: "\003\000\000\000\003\000\000\000\000\001\000\000\000\001\000\000"
      }
    }
  }
}
node {
  name: "vgg_16/conv3/conv3_2/weights/Initializer/random_uniform/min"
  op: "Const"
  attr {
    key: "_class"
    value {
      list {
        s: "loc:@vgg_16/conv3/conv3_2/weights"
      }
    }
  }
  attr {
    key: "dtype"
    value {
      type: DT_FLOAT
    }
  }
  attr {
    key: "value"
    value {
      tensor {
        dtype: DT_FLOAT
        tensor_shape {
        }
        float_val: -0.03608439117670059
      }
    }
  }
}
node {
  name: "vgg_16/conv3/conv3_2/weights/Initializer/random_uniform/max"
  op: "Const"
  attr {
    key: "_class"
    value {
      list {
        s: "loc:@vgg_16/conv3/conv3_2/weights"
      }
    }
  }
  attr {
    key: "dtype"
    value {
      type: DT_FLOAT
    }
  }
  attr {
    key: "value"
    value {
      tensor {
        dtype: DT_FLOAT
        tensor_shape {
        }
        float_val: 0.03608439117670059
      }
    }
  }
}
node {
  name: "vgg_16/conv3/conv3_2/weights/Initializer/random_uniform/RandomUniform"
  op: "RandomUniform"
  input: "vgg_16/conv3/conv3_2/weights/Initializer/random_uniform/shape"
  attr {
    key: "T"
    value {
      type: DT_INT32
    }
  }
  attr {
    key: "_class"
    value {
      list {
        s: "loc:@vgg_16/conv3/conv3_2/weights"
      }
    }
  }
  attr {
    key: "dtype"
    value {
      type: DT_FLOAT
    }
  }
  attr {
    key: "seed"
    value {
      i: 3
    }
  }
  attr {
    key: "seed2"
    value {
      i: 113
    }
  }
}
node {
  name: "vgg_16/conv3/conv3_2/weights/Initializer/random_uniform/sub"
  op: "Sub"
  input: "vgg_16/conv3/conv3_2/weights/Initializer/random_uniform/max"
  input: "vgg_16/conv3/conv3_2/weights/Initializer/random_uniform/min"
  attr {
    key: "T"
    value {
      type: DT_FLOAT
    }
  }
  attr {
    key: "_class"
    value {
      list {
        s: "loc:@vgg_16/conv3/conv3_2/weights"
      }
    }
  }
}
node {
  name: "vgg_16/conv3/conv3_2/weights/Initializer/random_uniform/mul"
  op: "Mul"
  input: "vgg_16/conv3/conv3_2/weights/Initializer/random_uniform/RandomUniform"
  input: "vgg_16/conv3/conv3_2/weights/Initializer/random_uniform/sub"
  attr {
    key: "T"
    value {
      type: DT_FLOAT
    }
  }
  attr {
    key: "_class"
    value {
      list {
        s: "loc:@vgg_16/conv3/conv3_2/weights"
      }
    }
  }
}
node {
  name: "vgg_16/conv3/conv3_2/weights/Initializer/random_uniform"
  op: "Add"
  input: "vgg_16/conv3/conv3_2/weights/Initializer/random_uniform/mul"
  input: "vgg_16/conv3/conv3_2/weights/Initializer/random_uniform/min"
  attr {
    key: "T"
    value {
      type: DT_FLOAT
    }
  }
  attr {
    key: "_class"
    value {
      list {
        s: "loc:@vgg_16/conv3/conv3_2/weights"
      }
    }
  }
}
node {
  name: "vgg_16/conv3/conv3_2/weights"
  op: "VariableV2"
  attr {
    key: "_class"
    value {
      list {
        s: "loc:@vgg_16/conv3/conv3_2/weights"
      }
    }
  }
  attr {
    key: "container"
    value {
      s: ""
    }
  }
  attr {
    key: "dtype"
    value {
      type: DT_FLOAT
    }
  }
  attr {
    key: "shape"
    value {
      shape {
        dim {
          size: 3
        }
        dim {
          size: 3
        }
        dim {
          size: 256
        }
        dim {
          size: 256
        }
      }
    }
  }
  attr {
    key: "shared_name"
    value {
      s: ""
    }
  }
}
node {
  name: "vgg_16/conv3/conv3_2/weights/Assign"
  op: "Assign"
  input: "vgg_16/conv3/conv3_2/weights"
  input: "vgg_16/conv3/conv3_2/weights/Initializer/random_uniform"
  attr {
    key: "T"
    value {
      type: DT_FLOAT
    }
  }
  attr {
    key: "_class"
    value {
      list {
        s: "loc:@vgg_16/conv3/conv3_2/weights"
      }
    }
  }
  attr {
    key: "use_locking"
    value {
      b: true
    }
  }
  attr {
    key: "validate_shape"
    value {
      b: true
    }
  }
}
node {
  name: "vgg_16/conv3/conv3_2/weights/read"
  op: "Identity"
  input: "vgg_16/conv3/conv3_2/weights"
  attr {
    key: "T"
    value {
      type: DT_FLOAT
    }
  }
  attr {
    key: "_class"
    value {
      list {
        s: "loc:@vgg_16/conv3/conv3_2/weights"
      }
    }
  }
}
node {
  name: "vgg_16/conv3/conv3_2/kernel/Regularizer/l2_regularizer/scale"
  op: "Const"
  attr {
    key: "_class"
    value {
      list {
        s: "loc:@vgg_16/conv3/conv3_2/weights"
      }
    }
  }
  attr {
    key: "dtype"
    value {
      type: DT_FLOAT
    }
  }
  attr {
    key: "value"
    value {
      tensor {
        dtype: DT_FLOAT
        tensor_shape {
        }
        float_val: 0.0005000000237487257
      }
    }
  }
}
node {
  name: "vgg_16/conv3/conv3_2/kernel/Regularizer/l2_regularizer/L2Loss"
  op: "L2Loss"
  input: "vgg_16/conv3/conv3_2/weights/read"
  attr {
    key: "T"
    value {
      type: DT_FLOAT
    }
  }
  attr {
    key: "_class"
    value {
      list {
        s: "loc:@vgg_16/conv3/conv3_2/weights"
      }
    }
  }
}
node {
  name: "vgg_16/conv3/conv3_2/kernel/Regularizer/l2_regularizer"
  op: "Mul"
  input: "vgg_16/conv3/conv3_2/kernel/Regularizer/l2_regularizer/scale"
  input: "vgg_16/conv3/conv3_2/kernel/Regularizer/l2_regularizer/L2Loss"
  attr {
    key: "T"
    value {
      type: DT_FLOAT
    }
  }
  attr {
    key: "_class"
    value {
      list {
        s: "loc:@vgg_16/conv3/conv3_2/weights"
      }
    }
  }
}
node {
  name: "vgg_16/conv3/conv3_2/biases/Initializer/Const"
  op: "Const"
  attr {
    key: "_class"
    value {
      list {
        s: "loc:@vgg_16/conv3/conv3_2/biases"
      }
    }
  }
  attr {
    key: "dtype"
    value {
      type: DT_FLOAT
    }
  }
  attr {
    key: "value"
    value {
      tensor {
        dtype: DT_FLOAT
        tensor_shape {
          dim {
            size: 256
          }
        }
        float_val: 0.0
      }
    }
  }
}
node {
  name: "vgg_16/conv3/conv3_2/biases"
  op: "VariableV2"
  attr {
    key: "_class"
    value {
      list {
        s: "loc:@vgg_16/conv3/conv3_2/biases"
      }
    }
  }
  attr {
    key: "container"
    value {
      s: ""
    }
  }
  attr {
    key: "dtype"
    value {
      type: DT_FLOAT
    }
  }
  attr {
    key: "shape"
    value {
      shape {
        dim {
          size: 256
        }
      }
    }
  }
  attr {
    key: "shared_name"
    value {
      s: ""
    }
  }
}
node {
  name: "vgg_16/conv3/conv3_2/biases/Assign"
  op: "Assign"
  input: "vgg_16/conv3/conv3_2/biases"
  input: "vgg_16/conv3/conv3_2/biases/Initializer/Const"
  attr {
    key: "T"
    value {
      type: DT_FLOAT
    }
  }
  attr {
    key: "_class"
    value {
      list {
        s: "loc:@vgg_16/conv3/conv3_2/biases"
      }
    }
  }
  attr {
    key: "use_locking"
    value {
      b: true
    }
  }
  attr {
    key: "validate_shape"
    value {
      b: true
    }
  }
}
node {
  name: "vgg_16/conv3/conv3_2/biases/read"
  op: "Identity"
  input: "vgg_16/conv3/conv3_2/biases"
  attr {
    key: "T"
    value {
      type: DT_FLOAT
    }
  }
  attr {
    key: "_class"
    value {
      list {
        s: "loc:@vgg_16/conv3/conv3_2/biases"
      }
    }
  }
}
node {
  name: "vgg_16/conv3/conv3_2/dilation_rate"
  op: "Const"
  attr {
    key: "dtype"
    value {
      type: DT_INT32
    }
  }
  attr {
    key: "value"
    value {
      tensor {
        dtype: DT_INT32
        tensor_shape {
          dim {
            size: 2
          }
        }
        tensor_content: "\001\000\000\000\001\000\000\000"
      }
    }
  }
}
node {
  name: "vgg_16/conv3/conv3_2/Conv2D"
  op: "Conv2D"
  input: "vgg_16/conv3/conv3_1/Relu"
  input: "vgg_16/conv3/conv3_2/weights/read"
  attr {
    key: "T"
    value {
      type: DT_FLOAT
    }
  }
  attr {
    key: "data_format"
    value {
      s: "NHWC"
    }
  }
  attr {
    key: "dilations"
    value {
      list {
        i: 1
        i: 1
        i: 1
        i: 1
      }
    }
  }
  attr {
    key: "padding"
    value {
      s: "SAME"
    }
  }
  attr {
    key: "strides"
    value {
      list {
        i: 1
        i: 1
        i: 1
        i: 1
      }
    }
  }
  attr {
    key: "use_cudnn_on_gpu"
    value {
      b: true
    }
  }
}
node {
  name: "vgg_16/conv3/conv3_2/BiasAdd"
  op: "BiasAdd"
  input: "vgg_16/conv3/conv3_2/Conv2D"
  input: "vgg_16/conv3/conv3_2/biases/read"
  attr {
    key: "T"
    value {
      type: DT_FLOAT
    }
  }
  attr {
    key: "data_format"
    value {
      s: "NHWC"
    }
  }
}
node {
  name: "vgg_16/conv3/conv3_2/Relu"
  op: "Relu"
  input: "vgg_16/conv3/conv3_2/BiasAdd"
  attr {
    key: "T"
    value {
      type: DT_FLOAT
    }
  }
}
node {
  name: "vgg_16/conv3/conv3_3/weights/Initializer/random_uniform/shape"
  op: "Const"
  attr {
    key: "_class"
    value {
      list {
        s: "loc:@vgg_16/conv3/conv3_3/weights"
      }
    }
  }
  attr {
    key: "dtype"
    value {
      type: DT_INT32
    }
  }
  attr {
    key: "value"
    value {
      tensor {
        dtype: DT_INT32
        tensor_shape {
          dim {
            size: 4
          }
        }
        tensor_content: "\003\000\000\000\003\000\000\000\000\001\000\000\000\001\000\000"
      }
    }
  }
}
node {
  name: "vgg_16/conv3/conv3_3/weights/Initializer/random_uniform/min"
  op: "Const"
  attr {
    key: "_class"
    value {
      list {
        s: "loc:@vgg_16/conv3/conv3_3/weights"
      }
    }
  }
  attr {
    key: "dtype"
    value {
      type: DT_FLOAT
    }
  }
  attr {
    key: "value"
    value {
      tensor {
        dtype: DT_FLOAT
        tensor_shape {
        }
        float_val: -0.03608439117670059
      }
    }
  }
}
node {
  name: "vgg_16/conv3/conv3_3/weights/Initializer/random_uniform/max"
  op: "Const"
  attr {
    key: "_class"
    value {
      list {
        s: "loc:@vgg_16/conv3/conv3_3/weights"
      }
    }
  }
  attr {
    key: "dtype"
    value {
      type: DT_FLOAT
    }
  }
  attr {
    key: "value"
    value {
      tensor {
        dtype: DT_FLOAT
        tensor_shape {
        }
        float_val: 0.03608439117670059
      }
    }
  }
}
node {
  name: "vgg_16/conv3/conv3_3/weights/Initializer/random_uniform/RandomUniform"
  op: "RandomUniform"
  input: "vgg_16/conv3/conv3_3/weights/Initializer/random_uniform/shape"
  attr {
    key: "T"
    value {
      type: DT_INT32
    }
  }
  attr {
    key: "_class"
    value {
      list {
        s: "loc:@vgg_16/conv3/conv3_3/weights"
      }
    }
  }
  attr {
    key: "dtype"
    value {
      type: DT_FLOAT
    }
  }
  attr {
    key: "seed"
    value {
      i: 3
    }
  }
  attr {
    key: "seed2"
    value {
      i: 134
    }
  }
}
node {
  name: "vgg_16/conv3/conv3_3/weights/Initializer/random_uniform/sub"
  op: "Sub"
  input: "vgg_16/conv3/conv3_3/weights/Initializer/random_uniform/max"
  input: "vgg_16/conv3/conv3_3/weights/Initializer/random_uniform/min"
  attr {
    key: "T"
    value {
      type: DT_FLOAT
    }
  }
  attr {
    key: "_class"
    value {
      list {
        s: "loc:@vgg_16/conv3/conv3_3/weights"
      }
    }
  }
}
node {
  name: "vgg_16/conv3/conv3_3/weights/Initializer/random_uniform/mul"
  op: "Mul"
  input: "vgg_16/conv3/conv3_3/weights/Initializer/random_uniform/RandomUniform"
  input: "vgg_16/conv3/conv3_3/weights/Initializer/random_uniform/sub"
  attr {
    key: "T"
    value {
      type: DT_FLOAT
    }
  }
  attr {
    key: "_class"
    value {
      list {
        s: "loc:@vgg_16/conv3/conv3_3/weights"
      }
    }
  }
}
node {
  name: "vgg_16/conv3/conv3_3/weights/Initializer/random_uniform"
  op: "Add"
  input: "vgg_16/conv3/conv3_3/weights/Initializer/random_uniform/mul"
  input: "vgg_16/conv3/conv3_3/weights/Initializer/random_uniform/min"
  attr {
    key: "T"
    value {
      type: DT_FLOAT
    }
  }
  attr {
    key: "_class"
    value {
      list {
        s: "loc:@vgg_16/conv3/conv3_3/weights"
      }
    }
  }
}
node {
  name: "vgg_16/conv3/conv3_3/weights"
  op: "VariableV2"
  attr {
    key: "_class"
    value {
      list {
        s: "loc:@vgg_16/conv3/conv3_3/weights"
      }
    }
  }
  attr {
    key: "container"
    value {
      s: ""
    }
  }
  attr {
    key: "dtype"
    value {
      type: DT_FLOAT
    }
  }
  attr {
    key: "shape"
    value {
      shape {
        dim {
          size: 3
        }
        dim {
          size: 3
        }
        dim {
          size: 256
        }
        dim {
          size: 256
        }
      }
    }
  }
  attr {
    key: "shared_name"
    value {
      s: ""
    }
  }
}
node {
  name: "vgg_16/conv3/conv3_3/weights/Assign"
  op: "Assign"
  input: "vgg_16/conv3/conv3_3/weights"
  input: "vgg_16/conv3/conv3_3/weights/Initializer/random_uniform"
  attr {
    key: "T"
    value {
      type: DT_FLOAT
    }
  }
  attr {
    key: "_class"
    value {
      list {
        s: "loc:@vgg_16/conv3/conv3_3/weights"
      }
    }
  }
  attr {
    key: "use_locking"
    value {
      b: true
    }
  }
  attr {
    key: "validate_shape"
    value {
      b: true
    }
  }
}
node {
  name: "vgg_16/conv3/conv3_3/weights/read"
  op: "Identity"
  input: "vgg_16/conv3/conv3_3/weights"
  attr {
    key: "T"
    value {
      type: DT_FLOAT
    }
  }
  attr {
    key: "_class"
    value {
      list {
        s: "loc:@vgg_16/conv3/conv3_3/weights"
      }
    }
  }
}
node {
  name: "vgg_16/conv3/conv3_3/kernel/Regularizer/l2_regularizer/scale"
  op: "Const"
  attr {
    key: "_class"
    value {
      list {
        s: "loc:@vgg_16/conv3/conv3_3/weights"
      }
    }
  }
  attr {
    key: "dtype"
    value {
      type: DT_FLOAT
    }
  }
  attr {
    key: "value"
    value {
      tensor {
        dtype: DT_FLOAT
        tensor_shape {
        }
        float_val: 0.0005000000237487257
      }
    }
  }
}
node {
  name: "vgg_16/conv3/conv3_3/kernel/Regularizer/l2_regularizer/L2Loss"
  op: "L2Loss"
  input: "vgg_16/conv3/conv3_3/weights/read"
  attr {
    key: "T"
    value {
      type: DT_FLOAT
    }
  }
  attr {
    key: "_class"
    value {
      list {
        s: "loc:@vgg_16/conv3/conv3_3/weights"
      }
    }
  }
}
node {
  name: "vgg_16/conv3/conv3_3/kernel/Regularizer/l2_regularizer"
  op: "Mul"
  input: "vgg_16/conv3/conv3_3/kernel/Regularizer/l2_regularizer/scale"
  input: "vgg_16/conv3/conv3_3/kernel/Regularizer/l2_regularizer/L2Loss"
  attr {
    key: "T"
    value {
      type: DT_FLOAT
    }
  }
  attr {
    key: "_class"
    value {
      list {
        s: "loc:@vgg_16/conv3/conv3_3/weights"
      }
    }
  }
}
node {
  name: "vgg_16/conv3/conv3_3/biases/Initializer/Const"
  op: "Const"
  attr {
    key: "_class"
    value {
      list {
        s: "loc:@vgg_16/conv3/conv3_3/biases"
      }
    }
  }
  attr {
    key: "dtype"
    value {
      type: DT_FLOAT
    }
  }
  attr {
    key: "value"
    value {
      tensor {
        dtype: DT_FLOAT
        tensor_shape {
          dim {
            size: 256
          }
        }
        float_val: 0.0
      }
    }
  }
}
node {
  name: "vgg_16/conv3/conv3_3/biases"
  op: "VariableV2"
  attr {
    key: "_class"
    value {
      list {
        s: "loc:@vgg_16/conv3/conv3_3/biases"
      }
    }
  }
  attr {
    key: "container"
    value {
      s: ""
    }
  }
  attr {
    key: "dtype"
    value {
      type: DT_FLOAT
    }
  }
  attr {
    key: "shape"
    value {
      shape {
        dim {
          size: 256
        }
      }
    }
  }
  attr {
    key: "shared_name"
    value {
      s: ""
    }
  }
}
node {
  name: "vgg_16/conv3/conv3_3/biases/Assign"
  op: "Assign"
  input: "vgg_16/conv3/conv3_3/biases"
  input: "vgg_16/conv3/conv3_3/biases/Initializer/Const"
  attr {
    key: "T"
    value {
      type: DT_FLOAT
    }
  }
  attr {
    key: "_class"
    value {
      list {
        s: "loc:@vgg_16/conv3/conv3_3/biases"
      }
    }
  }
  attr {
    key: "use_locking"
    value {
      b: true
    }
  }
  attr {
    key: "validate_shape"
    value {
      b: true
    }
  }
}
node {
  name: "vgg_16/conv3/conv3_3/biases/read"
  op: "Identity"
  input: "vgg_16/conv3/conv3_3/biases"
  attr {
    key: "T"
    value {
      type: DT_FLOAT
    }
  }
  attr {
    key: "_class"
    value {
      list {
        s: "loc:@vgg_16/conv3/conv3_3/biases"
      }
    }
  }
}
node {
  name: "vgg_16/conv3/conv3_3/dilation_rate"
  op: "Const"
  attr {
    key: "dtype"
    value {
      type: DT_INT32
    }
  }
  attr {
    key: "value"
    value {
      tensor {
        dtype: DT_INT32
        tensor_shape {
          dim {
            size: 2
          }
        }
        tensor_content: "\001\000\000\000\001\000\000\000"
      }
    }
  }
}
node {
  name: "vgg_16/conv3/conv3_3/Conv2D"
  op: "Conv2D"
  input: "vgg_16/conv3/conv3_2/Relu"
  input: "vgg_16/conv3/conv3_3/weights/read"
  attr {
    key: "T"
    value {
      type: DT_FLOAT
    }
  }
  attr {
    key: "data_format"
    value {
      s: "NHWC"
    }
  }
  attr {
    key: "dilations"
    value {
      list {
        i: 1
        i: 1
        i: 1
        i: 1
      }
    }
  }
  attr {
    key: "padding"
    value {
      s: "SAME"
    }
  }
  attr {
    key: "strides"
    value {
      list {
        i: 1
        i: 1
        i: 1
        i: 1
      }
    }
  }
  attr {
    key: "use_cudnn_on_gpu"
    value {
      b: true
    }
  }
}
node {
  name: "vgg_16/conv3/conv3_3/BiasAdd"
  op: "BiasAdd"
  input: "vgg_16/conv3/conv3_3/Conv2D"
  input: "vgg_16/conv3/conv3_3/biases/read"
  attr {
    key: "T"
    value {
      type: DT_FLOAT
    }
  }
  attr {
    key: "data_format"
    value {
      s: "NHWC"
    }
  }
}
node {
  name: "vgg_16/conv3/conv3_3/Relu"
  op: "Relu"
  input: "vgg_16/conv3/conv3_3/BiasAdd"
  attr {
    key: "T"
    value {
      type: DT_FLOAT
    }
  }
}
node {
  name: "vgg_16/pool3/MaxPool"
  op: "MaxPool"
  input: "vgg_16/conv3/conv3_3/Relu"
  attr {
    key: "T"
    value {
      type: DT_FLOAT
    }
  }
  attr {
    key: "data_format"
    value {
      s: "NHWC"
    }
  }
  attr {
    key: "ksize"
    value {
      list {
        i: 1
        i: 2
        i: 2
        i: 1
      }
    }
  }
  attr {
    key: "padding"
    value {
      s: "SAME"
    }
  }
  attr {
    key: "strides"
    value {
      list {
        i: 1
        i: 2
        i: 2
        i: 1
      }
    }
  }
}
node {
  name: "vgg_16/conv4/conv4_1/weights/Initializer/random_uniform/shape"
  op: "Const"
  attr {
    key: "_class"
    value {
      list {
        s: "loc:@vgg_16/conv4/conv4_1/weights"
      }
    }
  }
  attr {
    key: "dtype"
    value {
      type: DT_INT32
    }
  }
  attr {
    key: "value"
    value {
      tensor {
        dtype: DT_INT32
        tensor_shape {
          dim {
            size: 4
          }
        }
        tensor_content: "\003\000\000\000\003\000\000\000\000\001\000\000\000\002\000\000"
      }
    }
  }
}
node {
  name: "vgg_16/conv4/conv4_1/weights/Initializer/random_uniform/min"
  op: "Const"
  attr {
    key: "_class"
    value {
      list {
        s: "loc:@vgg_16/conv4/conv4_1/weights"
      }
    }
  }
  attr {
    key: "dtype"
    value {
      type: DT_FLOAT
    }
  }
  attr {
    key: "value"
    value {
      tensor {
        dtype: DT_FLOAT
        tensor_shape {
        }
        float_val: -0.02946278266608715
      }
    }
  }
}
node {
  name: "vgg_16/conv4/conv4_1/weights/Initializer/random_uniform/max"
  op: "Const"
  attr {
    key: "_class"
    value {
      list {
        s: "loc:@vgg_16/conv4/conv4_1/weights"
      }
    }
  }
  attr {
    key: "dtype"
    value {
      type: DT_FLOAT
    }
  }
  attr {
    key: "value"
    value {
      tensor {
        dtype: DT_FLOAT
        tensor_shape {
        }
        float_val: 0.02946278266608715
      }
    }
  }
}
node {
  name: "vgg_16/conv4/conv4_1/weights/Initializer/random_uniform/RandomUniform"
  op: "RandomUniform"
  input: "vgg_16/conv4/conv4_1/weights/Initializer/random_uniform/shape"
  attr {
    key: "T"
    value {
      type: DT_INT32
    }
  }
  attr {
    key: "_class"
    value {
      list {
        s: "loc:@vgg_16/conv4/conv4_1/weights"
      }
    }
  }
  attr {
    key: "dtype"
    value {
      type: DT_FLOAT
    }
  }
  attr {
    key: "seed"
    value {
      i: 3
    }
  }
  attr {
    key: "seed2"
    value {
      i: 156
    }
  }
}
node {
  name: "vgg_16/conv4/conv4_1/weights/Initializer/random_uniform/sub"
  op: "Sub"
  input: "vgg_16/conv4/conv4_1/weights/Initializer/random_uniform/max"
  input: "vgg_16/conv4/conv4_1/weights/Initializer/random_uniform/min"
  attr {
    key: "T"
    value {
      type: DT_FLOAT
    }
  }
  attr {
    key: "_class"
    value {
      list {
        s: "loc:@vgg_16/conv4/conv4_1/weights"
      }
    }
  }
}
node {
  name: "vgg_16/conv4/conv4_1/weights/Initializer/random_uniform/mul"
  op: "Mul"
  input: "vgg_16/conv4/conv4_1/weights/Initializer/random_uniform/RandomUniform"
  input: "vgg_16/conv4/conv4_1/weights/Initializer/random_uniform/sub"
  attr {
    key: "T"
    value {
      type: DT_FLOAT
    }
  }
  attr {
    key: "_class"
    value {
      list {
        s: "loc:@vgg_16/conv4/conv4_1/weights"
      }
    }
  }
}
node {
  name: "vgg_16/conv4/conv4_1/weights/Initializer/random_uniform"
  op: "Add"
  input: "vgg_16/conv4/conv4_1/weights/Initializer/random_uniform/mul"
  input: "vgg_16/conv4/conv4_1/weights/Initializer/random_uniform/min"
  attr {
    key: "T"
    value {
      type: DT_FLOAT
    }
  }
  attr {
    key: "_class"
    value {
      list {
        s: "loc:@vgg_16/conv4/conv4_1/weights"
      }
    }
  }
}
node {
  name: "vgg_16/conv4/conv4_1/weights"
  op: "VariableV2"
  attr {
    key: "_class"
    value {
      list {
        s: "loc:@vgg_16/conv4/conv4_1/weights"
      }
    }
  }
  attr {
    key: "container"
    value {
      s: ""
    }
  }
  attr {
    key: "dtype"
    value {
      type: DT_FLOAT
    }
  }
  attr {
    key: "shape"
    value {
      shape {
        dim {
          size: 3
        }
        dim {
          size: 3
        }
        dim {
          size: 256
        }
        dim {
          size: 512
        }
      }
    }
  }
  attr {
    key: "shared_name"
    value {
      s: ""
    }
  }
}
node {
  name: "vgg_16/conv4/conv4_1/weights/Assign"
  op: "Assign"
  input: "vgg_16/conv4/conv4_1/weights"
  input: "vgg_16/conv4/conv4_1/weights/Initializer/random_uniform"
  attr {
    key: "T"
    value {
      type: DT_FLOAT
    }
  }
  attr {
    key: "_class"
    value {
      list {
        s: "loc:@vgg_16/conv4/conv4_1/weights"
      }
    }
  }
  attr {
    key: "use_locking"
    value {
      b: true
    }
  }
  attr {
    key: "validate_shape"
    value {
      b: true
    }
  }
}
node {
  name: "vgg_16/conv4/conv4_1/weights/read"
  op: "Identity"
  input: "vgg_16/conv4/conv4_1/weights"
  attr {
    key: "T"
    value {
      type: DT_FLOAT
    }
  }
  attr {
    key: "_class"
    value {
      list {
        s: "loc:@vgg_16/conv4/conv4_1/weights"
      }
    }
  }
}
node {
  name: "vgg_16/conv4/conv4_1/kernel/Regularizer/l2_regularizer/scale"
  op: "Const"
  attr {
    key: "_class"
    value {
      list {
        s: "loc:@vgg_16/conv4/conv4_1/weights"
      }
    }
  }
  attr {
    key: "dtype"
    value {
      type: DT_FLOAT
    }
  }
  attr {
    key: "value"
    value {
      tensor {
        dtype: DT_FLOAT
        tensor_shape {
        }
        float_val: 0.0005000000237487257
      }
    }
  }
}
node {
  name: "vgg_16/conv4/conv4_1/kernel/Regularizer/l2_regularizer/L2Loss"
  op: "L2Loss"
  input: "vgg_16/conv4/conv4_1/weights/read"
  attr {
    key: "T"
    value {
      type: DT_FLOAT
    }
  }
  attr {
    key: "_class"
    value {
      list {
        s: "loc:@vgg_16/conv4/conv4_1/weights"
      }
    }
  }
}
node {
  name: "vgg_16/conv4/conv4_1/kernel/Regularizer/l2_regularizer"
  op: "Mul"
  input: "vgg_16/conv4/conv4_1/kernel/Regularizer/l2_regularizer/scale"
  input: "vgg_16/conv4/conv4_1/kernel/Regularizer/l2_regularizer/L2Loss"
  attr {
    key: "T"
    value {
      type: DT_FLOAT
    }
  }
  attr {
    key: "_class"
    value {
      list {
        s: "loc:@vgg_16/conv4/conv4_1/weights"
      }
    }
  }
}
node {
  name: "vgg_16/conv4/conv4_1/biases/Initializer/Const"
  op: "Const"
  attr {
    key: "_class"
    value {
      list {
        s: "loc:@vgg_16/conv4/conv4_1/biases"
      }
    }
  }
  attr {
    key: "dtype"
    value {
      type: DT_FLOAT
    }
  }
  attr {
    key: "value"
    value {
      tensor {
        dtype: DT_FLOAT
        tensor_shape {
          dim {
            size: 512
          }
        }
        float_val: 0.0
      }
    }
  }
}
node {
  name: "vgg_16/conv4/conv4_1/biases"
  op: "VariableV2"
  attr {
    key: "_class"
    value {
      list {
        s: "loc:@vgg_16/conv4/conv4_1/biases"
      }
    }
  }
  attr {
    key: "container"
    value {
      s: ""
    }
  }
  attr {
    key: "dtype"
    value {
      type: DT_FLOAT
    }
  }
  attr {
    key: "shape"
    value {
      shape {
        dim {
          size: 512
        }
      }
    }
  }
  attr {
    key: "shared_name"
    value {
      s: ""
    }
  }
}
node {
  name: "vgg_16/conv4/conv4_1/biases/Assign"
  op: "Assign"
  input: "vgg_16/conv4/conv4_1/biases"
  input: "vgg_16/conv4/conv4_1/biases/Initializer/Const"
  attr {
    key: "T"
    value {
      type: DT_FLOAT
    }
  }
  attr {
    key: "_class"
    value {
      list {
        s: "loc:@vgg_16/conv4/conv4_1/biases"
      }
    }
  }
  attr {
    key: "use_locking"
    value {
      b: true
    }
  }
  attr {
    key: "validate_shape"
    value {
      b: true
    }
  }
}
node {
  name: "vgg_16/conv4/conv4_1/biases/read"
  op: "Identity"
  input: "vgg_16/conv4/conv4_1/biases"
  attr {
    key: "T"
    value {
      type: DT_FLOAT
    }
  }
  attr {
    key: "_class"
    value {
      list {
        s: "loc:@vgg_16/conv4/conv4_1/biases"
      }
    }
  }
}
node {
  name: "vgg_16/conv4/conv4_1/dilation_rate"
  op: "Const"
  attr {
    key: "dtype"
    value {
      type: DT_INT32
    }
  }
  attr {
    key: "value"
    value {
      tensor {
        dtype: DT_INT32
        tensor_shape {
          dim {
            size: 2
          }
        }
        tensor_content: "\001\000\000\000\001\000\000\000"
      }
    }
  }
}
node {
  name: "vgg_16/conv4/conv4_1/Conv2D"
  op: "Conv2D"
  input: "vgg_16/pool3/MaxPool"
  input: "vgg_16/conv4/conv4_1/weights/read"
  attr {
    key: "T"
    value {
      type: DT_FLOAT
    }
  }
  attr {
    key: "data_format"
    value {
      s: "NHWC"
    }
  }
  attr {
    key: "dilations"
    value {
      list {
        i: 1
        i: 1
        i: 1
        i: 1
      }
    }
  }
  attr {
    key: "padding"
    value {
      s: "SAME"
    }
  }
  attr {
    key: "strides"
    value {
      list {
        i: 1
        i: 1
        i: 1
        i: 1
      }
    }
  }
  attr {
    key: "use_cudnn_on_gpu"
    value {
      b: true
    }
  }
}
node {
  name: "vgg_16/conv4/conv4_1/BiasAdd"
  op: "BiasAdd"
  input: "vgg_16/conv4/conv4_1/Conv2D"
  input: "vgg_16/conv4/conv4_1/biases/read"
  attr {
    key: "T"
    value {
      type: DT_FLOAT
    }
  }
  attr {
    key: "data_format"
    value {
      s: "NHWC"
    }
  }
}
node {
  name: "vgg_16/conv4/conv4_1/Relu"
  op: "Relu"
  input: "vgg_16/conv4/conv4_1/BiasAdd"
  attr {
    key: "T"
    value {
      type: DT_FLOAT
    }
  }
}
node {
  name: "vgg_16/conv4/conv4_2/weights/Initializer/random_uniform/shape"
  op: "Const"
  attr {
    key: "_class"
    value {
      list {
        s: "loc:@vgg_16/conv4/conv4_2/weights"
      }
    }
  }
  attr {
    key: "dtype"
    value {
      type: DT_INT32
    }
  }
  attr {
    key: "value"
    value {
      tensor {
        dtype: DT_INT32
        tensor_shape {
          dim {
            size: 4
          }
        }
        tensor_content: "\003\000\000\000\003\000\000\000\000\002\000\000\000\002\000\000"
      }
    }
  }
}
node {
  name: "vgg_16/conv4/conv4_2/weights/Initializer/random_uniform/min"
  op: "Const"
  attr {
    key: "_class"
    value {
      list {
        s: "loc:@vgg_16/conv4/conv4_2/weights"
      }
    }
  }
  attr {
    key: "dtype"
    value {
      type: DT_FLOAT
    }
  }
  attr {
    key: "value"
    value {
      tensor {
        dtype: DT_FLOAT
        tensor_shape {
        }
        float_val: -0.025515519082546234
      }
    }
  }
}
node {
  name: "vgg_16/conv4/conv4_2/weights/Initializer/random_uniform/max"
  op: "Const"
  attr {
    key: "_class"
    value {
      list {
        s: "loc:@vgg_16/conv4/conv4_2/weights"
      }
    }
  }
  attr {
    key: "dtype"
    value {
      type: DT_FLOAT
    }
  }
  attr {
    key: "value"
    value {
      tensor {
        dtype: DT_FLOAT
        tensor_shape {
        }
        float_val: 0.025515519082546234
      }
    }
  }
}
node {
  name: "vgg_16/conv4/conv4_2/weights/Initializer/random_uniform/RandomUniform"
  op: "RandomUniform"
  input: "vgg_16/conv4/conv4_2/weights/Initializer/random_uniform/shape"
  attr {
    key: "T"
    value {
      type: DT_INT32
    }
  }
  attr {
    key: "_class"
    value {
      list {
        s: "loc:@vgg_16/conv4/conv4_2/weights"
      }
    }
  }
  attr {
    key: "dtype"
    value {
      type: DT_FLOAT
    }
  }
  attr {
    key: "seed"
    value {
      i: 3
    }
  }
  attr {
    key: "seed2"
    value {
      i: 177
    }
  }
}
node {
  name: "vgg_16/conv4/conv4_2/weights/Initializer/random_uniform/sub"
  op: "Sub"
  input: "vgg_16/conv4/conv4_2/weights/Initializer/random_uniform/max"
  input: "vgg_16/conv4/conv4_2/weights/Initializer/random_uniform/min"
  attr {
    key: "T"
    value {
      type: DT_FLOAT
    }
  }
  attr {
    key: "_class"
    value {
      list {
        s: "loc:@vgg_16/conv4/conv4_2/weights"
      }
    }
  }
}
node {
  name: "vgg_16/conv4/conv4_2/weights/Initializer/random_uniform/mul"
  op: "Mul"
  input: "vgg_16/conv4/conv4_2/weights/Initializer/random_uniform/RandomUniform"
  input: "vgg_16/conv4/conv4_2/weights/Initializer/random_uniform/sub"
  attr {
    key: "T"
    value {
      type: DT_FLOAT
    }
  }
  attr {
    key: "_class"
    value {
      list {
        s: "loc:@vgg_16/conv4/conv4_2/weights"
      }
    }
  }
}
node {
  name: "vgg_16/conv4/conv4_2/weights/Initializer/random_uniform"
  op: "Add"
  input: "vgg_16/conv4/conv4_2/weights/Initializer/random_uniform/mul"
  input: "vgg_16/conv4/conv4_2/weights/Initializer/random_uniform/min"
  attr {
    key: "T"
    value {
      type: DT_FLOAT
    }
  }
  attr {
    key: "_class"
    value {
      list {
        s: "loc:@vgg_16/conv4/conv4_2/weights"
      }
    }
  }
}
node {
  name: "vgg_16/conv4/conv4_2/weights"
  op: "VariableV2"
  attr {
    key: "_class"
    value {
      list {
        s: "loc:@vgg_16/conv4/conv4_2/weights"
      }
    }
  }
  attr {
    key: "container"
    value {
      s: ""
    }
  }
  attr {
    key: "dtype"
    value {
      type: DT_FLOAT
    }
  }
  attr {
    key: "shape"
    value {
      shape {
        dim {
          size: 3
        }
        dim {
          size: 3
        }
        dim {
          size: 512
        }
        dim {
          size: 512
        }
      }
    }
  }
  attr {
    key: "shared_name"
    value {
      s: ""
    }
  }
}
node {
  name: "vgg_16/conv4/conv4_2/weights/Assign"
  op: "Assign"
  input: "vgg_16/conv4/conv4_2/weights"
  input: "vgg_16/conv4/conv4_2/weights/Initializer/random_uniform"
  attr {
    key: "T"
    value {
      type: DT_FLOAT
    }
  }
  attr {
    key: "_class"
    value {
      list {
        s: "loc:@vgg_16/conv4/conv4_2/weights"
      }
    }
  }
  attr {
    key: "use_locking"
    value {
      b: true
    }
  }
  attr {
    key: "validate_shape"
    value {
      b: true
    }
  }
}
node {
  name: "vgg_16/conv4/conv4_2/weights/read"
  op: "Identity"
  input: "vgg_16/conv4/conv4_2/weights"
  attr {
    key: "T"
    value {
      type: DT_FLOAT
    }
  }
  attr {
    key: "_class"
    value {
      list {
        s: "loc:@vgg_16/conv4/conv4_2/weights"
      }
    }
  }
}
node {
  name: "vgg_16/conv4/conv4_2/kernel/Regularizer/l2_regularizer/scale"
  op: "Const"
  attr {
    key: "_class"
    value {
      list {
        s: "loc:@vgg_16/conv4/conv4_2/weights"
      }
    }
  }
  attr {
    key: "dtype"
    value {
      type: DT_FLOAT
    }
  }
  attr {
    key: "value"
    value {
      tensor {
        dtype: DT_FLOAT
        tensor_shape {
        }
        float_val: 0.0005000000237487257
      }
    }
  }
}
node {
  name: "vgg_16/conv4/conv4_2/kernel/Regularizer/l2_regularizer/L2Loss"
  op: "L2Loss"
  input: "vgg_16/conv4/conv4_2/weights/read"
  attr {
    key: "T"
    value {
      type: DT_FLOAT
    }
  }
  attr {
    key: "_class"
    value {
      list {
        s: "loc:@vgg_16/conv4/conv4_2/weights"
      }
    }
  }
}
node {
  name: "vgg_16/conv4/conv4_2/kernel/Regularizer/l2_regularizer"
  op: "Mul"
  input: "vgg_16/conv4/conv4_2/kernel/Regularizer/l2_regularizer/scale"
  input: "vgg_16/conv4/conv4_2/kernel/Regularizer/l2_regularizer/L2Loss"
  attr {
    key: "T"
    value {
      type: DT_FLOAT
    }
  }
  attr {
    key: "_class"
    value {
      list {
        s: "loc:@vgg_16/conv4/conv4_2/weights"
      }
    }
  }
}
node {
  name: "vgg_16/conv4/conv4_2/biases/Initializer/Const"
  op: "Const"
  attr {
    key: "_class"
    value {
      list {
        s: "loc:@vgg_16/conv4/conv4_2/biases"
      }
    }
  }
  attr {
    key: "dtype"
    value {
      type: DT_FLOAT
    }
  }
  attr {
    key: "value"
    value {
      tensor {
        dtype: DT_FLOAT
        tensor_shape {
          dim {
            size: 512
          }
        }
        float_val: 0.0
      }
    }
  }
}
node {
  name: "vgg_16/conv4/conv4_2/biases"
  op: "VariableV2"
  attr {
    key: "_class"
    value {
      list {
        s: "loc:@vgg_16/conv4/conv4_2/biases"
      }
    }
  }
  attr {
    key: "container"
    value {
      s: ""
    }
  }
  attr {
    key: "dtype"
    value {
      type: DT_FLOAT
    }
  }
  attr {
    key: "shape"
    value {
      shape {
        dim {
          size: 512
        }
      }
    }
  }
  attr {
    key: "shared_name"
    value {
      s: ""
    }
  }
}
node {
  name: "vgg_16/conv4/conv4_2/biases/Assign"
  op: "Assign"
  input: "vgg_16/conv4/conv4_2/biases"
  input: "vgg_16/conv4/conv4_2/biases/Initializer/Const"
  attr {
    key: "T"
    value {
      type: DT_FLOAT
    }
  }
  attr {
    key: "_class"
    value {
      list {
        s: "loc:@vgg_16/conv4/conv4_2/biases"
      }
    }
  }
  attr {
    key: "use_locking"
    value {
      b: true
    }
  }
  attr {
    key: "validate_shape"
    value {
      b: true
    }
  }
}
node {
  name: "vgg_16/conv4/conv4_2/biases/read"
  op: "Identity"
  input: "vgg_16/conv4/conv4_2/biases"
  attr {
    key: "T"
    value {
      type: DT_FLOAT
    }
  }
  attr {
    key: "_class"
    value {
      list {
        s: "loc:@vgg_16/conv4/conv4_2/biases"
      }
    }
  }
}
node {
  name: "vgg_16/conv4/conv4_2/dilation_rate"
  op: "Const"
  attr {
    key: "dtype"
    value {
      type: DT_INT32
    }
  }
  attr {
    key: "value"
    value {
      tensor {
        dtype: DT_INT32
        tensor_shape {
          dim {
            size: 2
          }
        }
        tensor_content: "\001\000\000\000\001\000\000\000"
      }
    }
  }
}
node {
  name: "vgg_16/conv4/conv4_2/Conv2D"
  op: "Conv2D"
  input: "vgg_16/conv4/conv4_1/Relu"
  input: "vgg_16/conv4/conv4_2/weights/read"
  attr {
    key: "T"
    value {
      type: DT_FLOAT
    }
  }
  attr {
    key: "data_format"
    value {
      s: "NHWC"
    }
  }
  attr {
    key: "dilations"
    value {
      list {
        i: 1
        i: 1
        i: 1
        i: 1
      }
    }
  }
  attr {
    key: "padding"
    value {
      s: "SAME"
    }
  }
  attr {
    key: "strides"
    value {
      list {
        i: 1
        i: 1
        i: 1
        i: 1
      }
    }
  }
  attr {
    key: "use_cudnn_on_gpu"
    value {
      b: true
    }
  }
}
node {
  name: "vgg_16/conv4/conv4_2/BiasAdd"
  op: "BiasAdd"
  input: "vgg_16/conv4/conv4_2/Conv2D"
  input: "vgg_16/conv4/conv4_2/biases/read"
  attr {
    key: "T"
    value {
      type: DT_FLOAT
    }
  }
  attr {
    key: "data_format"
    value {
      s: "NHWC"
    }
  }
}
node {
  name: "vgg_16/conv4/conv4_2/Relu"
  op: "Relu"
  input: "vgg_16/conv4/conv4_2/BiasAdd"
  attr {
    key: "T"
    value {
      type: DT_FLOAT
    }
  }
}
node {
  name: "vgg_16/conv4/conv4_3/weights/Initializer/random_uniform/shape"
  op: "Const"
  attr {
    key: "_class"
    value {
      list {
        s: "loc:@vgg_16/conv4/conv4_3/weights"
      }
    }
  }
  attr {
    key: "dtype"
    value {
      type: DT_INT32
    }
  }
  attr {
    key: "value"
    value {
      tensor {
        dtype: DT_INT32
        tensor_shape {
          dim {
            size: 4
          }
        }
        tensor_content: "\003\000\000\000\003\000\000\000\000\002\000\000\000\002\000\000"
      }
    }
  }
}
node {
  name: "vgg_16/conv4/conv4_3/weights/Initializer/random_uniform/min"
  op: "Const"
  attr {
    key: "_class"
    value {
      list {
        s: "loc:@vgg_16/conv4/conv4_3/weights"
      }
    }
  }
  attr {
    key: "dtype"
    value {
      type: DT_FLOAT
    }
  }
  attr {
    key: "value"
    value {
      tensor {
        dtype: DT_FLOAT
        tensor_shape {
        }
        float_val: -0.025515519082546234
      }
    }
  }
}
node {
  name: "vgg_16/conv4/conv4_3/weights/Initializer/random_uniform/max"
  op: "Const"
  attr {
    key: "_class"
    value {
      list {
        s: "loc:@vgg_16/conv4/conv4_3/weights"
      }
    }
  }
  attr {
    key: "dtype"
    value {
      type: DT_FLOAT
    }
  }
  attr {
    key: "value"
    value {
      tensor {
        dtype: DT_FLOAT
        tensor_shape {
        }
        float_val: 0.025515519082546234
      }
    }
  }
}
node {
  name: "vgg_16/conv4/conv4_3/weights/Initializer/random_uniform/RandomUniform"
  op: "RandomUniform"
  input: "vgg_16/conv4/conv4_3/weights/Initializer/random_uniform/shape"
  attr {
    key: "T"
    value {
      type: DT_INT32
    }
  }
  attr {
    key: "_class"
    value {
      list {
        s: "loc:@vgg_16/conv4/conv4_3/weights"
      }
    }
  }
  attr {
    key: "dtype"
    value {
      type: DT_FLOAT
    }
  }
  attr {
    key: "seed"
    value {
      i: 3
    }
  }
  attr {
    key: "seed2"
    value {
      i: 198
    }
  }
}
node {
  name: "vgg_16/conv4/conv4_3/weights/Initializer/random_uniform/sub"
  op: "Sub"
  input: "vgg_16/conv4/conv4_3/weights/Initializer/random_uniform/max"
  input: "vgg_16/conv4/conv4_3/weights/Initializer/random_uniform/min"
  attr {
    key: "T"
    value {
      type: DT_FLOAT
    }
  }
  attr {
    key: "_class"
    value {
      list {
        s: "loc:@vgg_16/conv4/conv4_3/weights"
      }
    }
  }
}
node {
  name: "vgg_16/conv4/conv4_3/weights/Initializer/random_uniform/mul"
  op: "Mul"
  input: "vgg_16/conv4/conv4_3/weights/Initializer/random_uniform/RandomUniform"
  input: "vgg_16/conv4/conv4_3/weights/Initializer/random_uniform/sub"
  attr {
    key: "T"
    value {
      type: DT_FLOAT
    }
  }
  attr {
    key: "_class"
    value {
      list {
        s: "loc:@vgg_16/conv4/conv4_3/weights"
      }
    }
  }
}
node {
  name: "vgg_16/conv4/conv4_3/weights/Initializer/random_uniform"
  op: "Add"
  input: "vgg_16/conv4/conv4_3/weights/Initializer/random_uniform/mul"
  input: "vgg_16/conv4/conv4_3/weights/Initializer/random_uniform/min"
  attr {
    key: "T"
    value {
      type: DT_FLOAT
    }
  }
  attr {
    key: "_class"
    value {
      list {
        s: "loc:@vgg_16/conv4/conv4_3/weights"
      }
    }
  }
}
node {
  name: "vgg_16/conv4/conv4_3/weights"
  op: "VariableV2"
  attr {
    key: "_class"
    value {
      list {
        s: "loc:@vgg_16/conv4/conv4_3/weights"
      }
    }
  }
  attr {
    key: "container"
    value {
      s: ""
    }
  }
  attr {
    key: "dtype"
    value {
      type: DT_FLOAT
    }
  }
  attr {
    key: "shape"
    value {
      shape {
        dim {
          size: 3
        }
        dim {
          size: 3
        }
        dim {
          size: 512
        }
        dim {
          size: 512
        }
      }
    }
  }
  attr {
    key: "shared_name"
    value {
      s: ""
    }
  }
}
node {
  name: "vgg_16/conv4/conv4_3/weights/Assign"
  op: "Assign"
  input: "vgg_16/conv4/conv4_3/weights"
  input: "vgg_16/conv4/conv4_3/weights/Initializer/random_uniform"
  attr {
    key: "T"
    value {
      type: DT_FLOAT
    }
  }
  attr {
    key: "_class"
    value {
      list {
        s: "loc:@vgg_16/conv4/conv4_3/weights"
      }
    }
  }
  attr {
    key: "use_locking"
    value {
      b: true
    }
  }
  attr {
    key: "validate_shape"
    value {
      b: true
    }
  }
}
node {
  name: "vgg_16/conv4/conv4_3/weights/read"
  op: "Identity"
  input: "vgg_16/conv4/conv4_3/weights"
  attr {
    key: "T"
    value {
      type: DT_FLOAT
    }
  }
  attr {
    key: "_class"
    value {
      list {
        s: "loc:@vgg_16/conv4/conv4_3/weights"
      }
    }
  }
}
node {
  name: "vgg_16/conv4/conv4_3/kernel/Regularizer/l2_regularizer/scale"
  op: "Const"
  attr {
    key: "_class"
    value {
      list {
        s: "loc:@vgg_16/conv4/conv4_3/weights"
      }
    }
  }
  attr {
    key: "dtype"
    value {
      type: DT_FLOAT
    }
  }
  attr {
    key: "value"
    value {
      tensor {
        dtype: DT_FLOAT
        tensor_shape {
        }
        float_val: 0.0005000000237487257
      }
    }
  }
}
node {
  name: "vgg_16/conv4/conv4_3/kernel/Regularizer/l2_regularizer/L2Loss"
  op: "L2Loss"
  input: "vgg_16/conv4/conv4_3/weights/read"
  attr {
    key: "T"
    value {
      type: DT_FLOAT
    }
  }
  attr {
    key: "_class"
    value {
      list {
        s: "loc:@vgg_16/conv4/conv4_3/weights"
      }
    }
  }
}
node {
  name: "vgg_16/conv4/conv4_3/kernel/Regularizer/l2_regularizer"
  op: "Mul"
  input: "vgg_16/conv4/conv4_3/kernel/Regularizer/l2_regularizer/scale"
  input: "vgg_16/conv4/conv4_3/kernel/Regularizer/l2_regularizer/L2Loss"
  attr {
    key: "T"
    value {
      type: DT_FLOAT
    }
  }
  attr {
    key: "_class"
    value {
      list {
        s: "loc:@vgg_16/conv4/conv4_3/weights"
      }
    }
  }
}
node {
  name: "vgg_16/conv4/conv4_3/biases/Initializer/Const"
  op: "Const"
  attr {
    key: "_class"
    value {
      list {
        s: "loc:@vgg_16/conv4/conv4_3/biases"
      }
    }
  }
  attr {
    key: "dtype"
    value {
      type: DT_FLOAT
    }
  }
  attr {
    key: "value"
    value {
      tensor {
        dtype: DT_FLOAT
        tensor_shape {
          dim {
            size: 512
          }
        }
        float_val: 0.0
      }
    }
  }
}
node {
  name: "vgg_16/conv4/conv4_3/biases"
  op: "VariableV2"
  attr {
    key: "_class"
    value {
      list {
        s: "loc:@vgg_16/conv4/conv4_3/biases"
      }
    }
  }
  attr {
    key: "container"
    value {
      s: ""
    }
  }
  attr {
    key: "dtype"
    value {
      type: DT_FLOAT
    }
  }
  attr {
    key: "shape"
    value {
      shape {
        dim {
          size: 512
        }
      }
    }
  }
  attr {
    key: "shared_name"
    value {
      s: ""
    }
  }
}
node {
  name: "vgg_16/conv4/conv4_3/biases/Assign"
  op: "Assign"
  input: "vgg_16/conv4/conv4_3/biases"
  input: "vgg_16/conv4/conv4_3/biases/Initializer/Const"
  attr {
    key: "T"
    value {
      type: DT_FLOAT
    }
  }
  attr {
    key: "_class"
    value {
      list {
        s: "loc:@vgg_16/conv4/conv4_3/biases"
      }
    }
  }
  attr {
    key: "use_locking"
    value {
      b: true
    }
  }
  attr {
    key: "validate_shape"
    value {
      b: true
    }
  }
}
node {
  name: "vgg_16/conv4/conv4_3/biases/read"
  op: "Identity"
  input: "vgg_16/conv4/conv4_3/biases"
  attr {
    key: "T"
    value {
      type: DT_FLOAT
    }
  }
  attr {
    key: "_class"
    value {
      list {
        s: "loc:@vgg_16/conv4/conv4_3/biases"
      }
    }
  }
}
node {
  name: "vgg_16/conv4/conv4_3/dilation_rate"
  op: "Const"
  attr {
    key: "dtype"
    value {
      type: DT_INT32
    }
  }
  attr {
    key: "value"
    value {
      tensor {
        dtype: DT_INT32
        tensor_shape {
          dim {
            size: 2
          }
        }
        tensor_content: "\001\000\000\000\001\000\000\000"
      }
    }
  }
}
node {
  name: "vgg_16/conv4/conv4_3/Conv2D"
  op: "Conv2D"
  input: "vgg_16/conv4/conv4_2/Relu"
  input: "vgg_16/conv4/conv4_3/weights/read"
  attr {
    key: "T"
    value {
      type: DT_FLOAT
    }
  }
  attr {
    key: "data_format"
    value {
      s: "NHWC"
    }
  }
  attr {
    key: "dilations"
    value {
      list {
        i: 1
        i: 1
        i: 1
        i: 1
      }
    }
  }
  attr {
    key: "padding"
    value {
      s: "SAME"
    }
  }
  attr {
    key: "strides"
    value {
      list {
        i: 1
        i: 1
        i: 1
        i: 1
      }
    }
  }
  attr {
    key: "use_cudnn_on_gpu"
    value {
      b: true
    }
  }
}
node {
  name: "vgg_16/conv4/conv4_3/BiasAdd"
  op: "BiasAdd"
  input: "vgg_16/conv4/conv4_3/Conv2D"
  input: "vgg_16/conv4/conv4_3/biases/read"
  attr {
    key: "T"
    value {
      type: DT_FLOAT
    }
  }
  attr {
    key: "data_format"
    value {
      s: "NHWC"
    }
  }
}
node {
  name: "vgg_16/conv4/conv4_3/Relu"
  op: "Relu"
  input: "vgg_16/conv4/conv4_3/BiasAdd"
  attr {
    key: "T"
    value {
      type: DT_FLOAT
    }
  }
}
node {
  name: "vgg_16/pool4/MaxPool"
  op: "MaxPool"
  input: "vgg_16/conv4/conv4_3/Relu"
  attr {
    key: "T"
    value {
      type: DT_FLOAT
    }
  }
  attr {
    key: "data_format"
    value {
      s: "NHWC"
    }
  }
  attr {
    key: "ksize"
    value {
      list {
        i: 1
        i: 2
        i: 2
        i: 1
      }
    }
  }
  attr {
    key: "padding"
    value {
      s: "SAME"
    }
  }
  attr {
    key: "strides"
    value {
      list {
        i: 1
        i: 2
        i: 2
        i: 1
      }
    }
  }
}
node {
  name: "vgg_16/conv5/conv5_1/weights/Initializer/random_uniform/shape"
  op: "Const"
  attr {
    key: "_class"
    value {
      list {
        s: "loc:@vgg_16/conv5/conv5_1/weights"
      }
    }
  }
  attr {
    key: "dtype"
    value {
      type: DT_INT32
    }
  }
  attr {
    key: "value"
    value {
      tensor {
        dtype: DT_INT32
        tensor_shape {
          dim {
            size: 4
          }
        }
        tensor_content: "\003\000\000\000\003\000\000\000\000\002\000\000\000\002\000\000"
      }
    }
  }
}
node {
  name: "vgg_16/conv5/conv5_1/weights/Initializer/random_uniform/min"
  op: "Const"
  attr {
    key: "_class"
    value {
      list {
        s: "loc:@vgg_16/conv5/conv5_1/weights"
      }
    }
  }
  attr {
    key: "dtype"
    value {
      type: DT_FLOAT
    }
  }
  attr {
    key: "value"
    value {
      tensor {
        dtype: DT_FLOAT
        tensor_shape {
        }
        float_val: -0.025515519082546234
      }
    }
  }
}
node {
  name: "vgg_16/conv5/conv5_1/weights/Initializer/random_uniform/max"
  op: "Const"
  attr {
    key: "_class"
    value {
      list {
        s: "loc:@vgg_16/conv5/conv5_1/weights"
      }
    }
  }
  attr {
    key: "dtype"
    value {
      type: DT_FLOAT
    }
  }
  attr {
    key: "value"
    value {
      tensor {
        dtype: DT_FLOAT
        tensor_shape {
        }
        float_val: 0.025515519082546234
      }
    }
  }
}
node {
  name: "vgg_16/conv5/conv5_1/weights/Initializer/random_uniform/RandomUniform"
  op: "RandomUniform"
  input: "vgg_16/conv5/conv5_1/weights/Initializer/random_uniform/shape"
  attr {
    key: "T"
    value {
      type: DT_INT32
    }
  }
  attr {
    key: "_class"
    value {
      list {
        s: "loc:@vgg_16/conv5/conv5_1/weights"
      }
    }
  }
  attr {
    key: "dtype"
    value {
      type: DT_FLOAT
    }
  }
  attr {
    key: "seed"
    value {
      i: 3
    }
  }
  attr {
    key: "seed2"
    value {
      i: 220
    }
  }
}
node {
  name: "vgg_16/conv5/conv5_1/weights/Initializer/random_uniform/sub"
  op: "Sub"
  input: "vgg_16/conv5/conv5_1/weights/Initializer/random_uniform/max"
  input: "vgg_16/conv5/conv5_1/weights/Initializer/random_uniform/min"
  attr {
    key: "T"
    value {
      type: DT_FLOAT
    }
  }
  attr {
    key: "_class"
    value {
      list {
        s: "loc:@vgg_16/conv5/conv5_1/weights"
      }
    }
  }
}
node {
  name: "vgg_16/conv5/conv5_1/weights/Initializer/random_uniform/mul"
  op: "Mul"
  input: "vgg_16/conv5/conv5_1/weights/Initializer/random_uniform/RandomUniform"
  input: "vgg_16/conv5/conv5_1/weights/Initializer/random_uniform/sub"
  attr {
    key: "T"
    value {
      type: DT_FLOAT
    }
  }
  attr {
    key: "_class"
    value {
      list {
        s: "loc:@vgg_16/conv5/conv5_1/weights"
      }
    }
  }
}
node {
  name: "vgg_16/conv5/conv5_1/weights/Initializer/random_uniform"
  op: "Add"
  input: "vgg_16/conv5/conv5_1/weights/Initializer/random_uniform/mul"
  input: "vgg_16/conv5/conv5_1/weights/Initializer/random_uniform/min"
  attr {
    key: "T"
    value {
      type: DT_FLOAT
    }
  }
  attr {
    key: "_class"
    value {
      list {
        s: "loc:@vgg_16/conv5/conv5_1/weights"
      }
    }
  }
}
node {
  name: "vgg_16/conv5/conv5_1/weights"
  op: "VariableV2"
  attr {
    key: "_class"
    value {
      list {
        s: "loc:@vgg_16/conv5/conv5_1/weights"
      }
    }
  }
  attr {
    key: "container"
    value {
      s: ""
    }
  }
  attr {
    key: "dtype"
    value {
      type: DT_FLOAT
    }
  }
  attr {
    key: "shape"
    value {
      shape {
        dim {
          size: 3
        }
        dim {
          size: 3
        }
        dim {
          size: 512
        }
        dim {
          size: 512
        }
      }
    }
  }
  attr {
    key: "shared_name"
    value {
      s: ""
    }
  }
}
node {
  name: "vgg_16/conv5/conv5_1/weights/Assign"
  op: "Assign"
  input: "vgg_16/conv5/conv5_1/weights"
  input: "vgg_16/conv5/conv5_1/weights/Initializer/random_uniform"
  attr {
    key: "T"
    value {
      type: DT_FLOAT
    }
  }
  attr {
    key: "_class"
    value {
      list {
        s: "loc:@vgg_16/conv5/conv5_1/weights"
      }
    }
  }
  attr {
    key: "use_locking"
    value {
      b: true
    }
  }
  attr {
    key: "validate_shape"
    value {
      b: true
    }
  }
}
node {
  name: "vgg_16/conv5/conv5_1/weights/read"
  op: "Identity"
  input: "vgg_16/conv5/conv5_1/weights"
  attr {
    key: "T"
    value {
      type: DT_FLOAT
    }
  }
  attr {
    key: "_class"
    value {
      list {
        s: "loc:@vgg_16/conv5/conv5_1/weights"
      }
    }
  }
}
node {
  name: "vgg_16/conv5/conv5_1/kernel/Regularizer/l2_regularizer/scale"
  op: "Const"
  attr {
    key: "_class"
    value {
      list {
        s: "loc:@vgg_16/conv5/conv5_1/weights"
      }
    }
  }
  attr {
    key: "dtype"
    value {
      type: DT_FLOAT
    }
  }
  attr {
    key: "value"
    value {
      tensor {
        dtype: DT_FLOAT
        tensor_shape {
        }
        float_val: 0.0005000000237487257
      }
    }
  }
}
node {
  name: "vgg_16/conv5/conv5_1/kernel/Regularizer/l2_regularizer/L2Loss"
  op: "L2Loss"
  input: "vgg_16/conv5/conv5_1/weights/read"
  attr {
    key: "T"
    value {
      type: DT_FLOAT
    }
  }
  attr {
    key: "_class"
    value {
      list {
        s: "loc:@vgg_16/conv5/conv5_1/weights"
      }
    }
  }
}
node {
  name: "vgg_16/conv5/conv5_1/kernel/Regularizer/l2_regularizer"
  op: "Mul"
  input: "vgg_16/conv5/conv5_1/kernel/Regularizer/l2_regularizer/scale"
  input: "vgg_16/conv5/conv5_1/kernel/Regularizer/l2_regularizer/L2Loss"
  attr {
    key: "T"
    value {
      type: DT_FLOAT
    }
  }
  attr {
    key: "_class"
    value {
      list {
        s: "loc:@vgg_16/conv5/conv5_1/weights"
      }
    }
  }
}
node {
  name: "vgg_16/conv5/conv5_1/biases/Initializer/Const"
  op: "Const"
  attr {
    key: "_class"
    value {
      list {
        s: "loc:@vgg_16/conv5/conv5_1/biases"
      }
    }
  }
  attr {
    key: "dtype"
    value {
      type: DT_FLOAT
    }
  }
  attr {
    key: "value"
    value {
      tensor {
        dtype: DT_FLOAT
        tensor_shape {
          dim {
            size: 512
          }
        }
        float_val: 0.0
      }
    }
  }
}
node {
  name: "vgg_16/conv5/conv5_1/biases"
  op: "VariableV2"
  attr {
    key: "_class"
    value {
      list {
        s: "loc:@vgg_16/conv5/conv5_1/biases"
      }
    }
  }
  attr {
    key: "container"
    value {
      s: ""
    }
  }
  attr {
    key: "dtype"
    value {
      type: DT_FLOAT
    }
  }
  attr {
    key: "shape"
    value {
      shape {
        dim {
          size: 512
        }
      }
    }
  }
  attr {
    key: "shared_name"
    value {
      s: ""
    }
  }
}
node {
  name: "vgg_16/conv5/conv5_1/biases/Assign"
  op: "Assign"
  input: "vgg_16/conv5/conv5_1/biases"
  input: "vgg_16/conv5/conv5_1/biases/Initializer/Const"
  attr {
    key: "T"
    value {
      type: DT_FLOAT
    }
  }
  attr {
    key: "_class"
    value {
      list {
        s: "loc:@vgg_16/conv5/conv5_1/biases"
      }
    }
  }
  attr {
    key: "use_locking"
    value {
      b: true
    }
  }
  attr {
    key: "validate_shape"
    value {
      b: true
    }
  }
}
node {
  name: "vgg_16/conv5/conv5_1/biases/read"
  op: "Identity"
  input: "vgg_16/conv5/conv5_1/biases"
  attr {
    key: "T"
    value {
      type: DT_FLOAT
    }
  }
  attr {
    key: "_class"
    value {
      list {
        s: "loc:@vgg_16/conv5/conv5_1/biases"
      }
    }
  }
}
node {
  name: "vgg_16/conv5/conv5_1/dilation_rate"
  op: "Const"
  attr {
    key: "dtype"
    value {
      type: DT_INT32
    }
  }
  attr {
    key: "value"
    value {
      tensor {
        dtype: DT_INT32
        tensor_shape {
          dim {
            size: 2
          }
        }
        tensor_content: "\001\000\000\000\001\000\000\000"
      }
    }
  }
}
node {
  name: "vgg_16/conv5/conv5_1/Conv2D"
  op: "Conv2D"
  input: "vgg_16/pool4/MaxPool"
  input: "vgg_16/conv5/conv5_1/weights/read"
  attr {
    key: "T"
    value {
      type: DT_FLOAT
    }
  }
  attr {
    key: "data_format"
    value {
      s: "NHWC"
    }
  }
  attr {
    key: "dilations"
    value {
      list {
        i: 1
        i: 1
        i: 1
        i: 1
      }
    }
  }
  attr {
    key: "padding"
    value {
      s: "SAME"
    }
  }
  attr {
    key: "strides"
    value {
      list {
        i: 1
        i: 1
        i: 1
        i: 1
      }
    }
  }
  attr {
    key: "use_cudnn_on_gpu"
    value {
      b: true
    }
  }
}
node {
  name: "vgg_16/conv5/conv5_1/BiasAdd"
  op: "BiasAdd"
  input: "vgg_16/conv5/conv5_1/Conv2D"
  input: "vgg_16/conv5/conv5_1/biases/read"
  attr {
    key: "T"
    value {
      type: DT_FLOAT
    }
  }
  attr {
    key: "data_format"
    value {
      s: "NHWC"
    }
  }
}
node {
  name: "vgg_16/conv5/conv5_1/Relu"
  op: "Relu"
  input: "vgg_16/conv5/conv5_1/BiasAdd"
  attr {
    key: "T"
    value {
      type: DT_FLOAT
    }
  }
}
node {
  name: "vgg_16/conv5/conv5_2/weights/Initializer/random_uniform/shape"
  op: "Const"
  attr {
    key: "_class"
    value {
      list {
        s: "loc:@vgg_16/conv5/conv5_2/weights"
      }
    }
  }
  attr {
    key: "dtype"
    value {
      type: DT_INT32
    }
  }
  attr {
    key: "value"
    value {
      tensor {
        dtype: DT_INT32
        tensor_shape {
          dim {
            size: 4
          }
        }
        tensor_content: "\003\000\000\000\003\000\000\000\000\002\000\000\000\002\000\000"
      }
    }
  }
}
node {
  name: "vgg_16/conv5/conv5_2/weights/Initializer/random_uniform/min"
  op: "Const"
  attr {
    key: "_class"
    value {
      list {
        s: "loc:@vgg_16/conv5/conv5_2/weights"
      }
    }
  }
  attr {
    key: "dtype"
    value {
      type: DT_FLOAT
    }
  }
  attr {
    key: "value"
    value {
      tensor {
        dtype: DT_FLOAT
        tensor_shape {
        }
        float_val: -0.025515519082546234
      }
    }
  }
}
node {
  name: "vgg_16/conv5/conv5_2/weights/Initializer/random_uniform/max"
  op: "Const"
  attr {
    key: "_class"
    value {
      list {
        s: "loc:@vgg_16/conv5/conv5_2/weights"
      }
    }
  }
  attr {
    key: "dtype"
    value {
      type: DT_FLOAT
    }
  }
  attr {
    key: "value"
    value {
      tensor {
        dtype: DT_FLOAT
        tensor_shape {
        }
        float_val: 0.025515519082546234
      }
    }
  }
}
node {
  name: "vgg_16/conv5/conv5_2/weights/Initializer/random_uniform/RandomUniform"
  op: "RandomUniform"
  input: "vgg_16/conv5/conv5_2/weights/Initializer/random_uniform/shape"
  attr {
    key: "T"
    value {
      type: DT_INT32
    }
  }
  attr {
    key: "_class"
    value {
      list {
        s: "loc:@vgg_16/conv5/conv5_2/weights"
      }
    }
  }
  attr {
    key: "dtype"
    value {
      type: DT_FLOAT
    }
  }
  attr {
    key: "seed"
    value {
      i: 3
    }
  }
  attr {
    key: "seed2"
    value {
      i: 241
    }
  }
}
node {
  name: "vgg_16/conv5/conv5_2/weights/Initializer/random_uniform/sub"
  op: "Sub"
  input: "vgg_16/conv5/conv5_2/weights/Initializer/random_uniform/max"
  input: "vgg_16/conv5/conv5_2/weights/Initializer/random_uniform/min"
  attr {
    key: "T"
    value {
      type: DT_FLOAT
    }
  }
  attr {
    key: "_class"
    value {
      list {
        s: "loc:@vgg_16/conv5/conv5_2/weights"
      }
    }
  }
}
node {
  name: "vgg_16/conv5/conv5_2/weights/Initializer/random_uniform/mul"
  op: "Mul"
  input: "vgg_16/conv5/conv5_2/weights/Initializer/random_uniform/RandomUniform"
  input: "vgg_16/conv5/conv5_2/weights/Initializer/random_uniform/sub"
  attr {
    key: "T"
    value {
      type: DT_FLOAT
    }
  }
  attr {
    key: "_class"
    value {
      list {
        s: "loc:@vgg_16/conv5/conv5_2/weights"
      }
    }
  }
}
node {
  name: "vgg_16/conv5/conv5_2/weights/Initializer/random_uniform"
  op: "Add"
  input: "vgg_16/conv5/conv5_2/weights/Initializer/random_uniform/mul"
  input: "vgg_16/conv5/conv5_2/weights/Initializer/random_uniform/min"
  attr {
    key: "T"
    value {
      type: DT_FLOAT
    }
  }
  attr {
    key: "_class"
    value {
      list {
        s: "loc:@vgg_16/conv5/conv5_2/weights"
      }
    }
  }
}
node {
  name: "vgg_16/conv5/conv5_2/weights"
  op: "VariableV2"
  attr {
    key: "_class"
    value {
      list {
        s: "loc:@vgg_16/conv5/conv5_2/weights"
      }
    }
  }
  attr {
    key: "container"
    value {
      s: ""
    }
  }
  attr {
    key: "dtype"
    value {
      type: DT_FLOAT
    }
  }
  attr {
    key: "shape"
    value {
      shape {
        dim {
          size: 3
        }
        dim {
          size: 3
        }
        dim {
          size: 512
        }
        dim {
          size: 512
        }
      }
    }
  }
  attr {
    key: "shared_name"
    value {
      s: ""
    }
  }
}
node {
  name: "vgg_16/conv5/conv5_2/weights/Assign"
  op: "Assign"
  input: "vgg_16/conv5/conv5_2/weights"
  input: "vgg_16/conv5/conv5_2/weights/Initializer/random_uniform"
  attr {
    key: "T"
    value {
      type: DT_FLOAT
    }
  }
  attr {
    key: "_class"
    value {
      list {
        s: "loc:@vgg_16/conv5/conv5_2/weights"
      }
    }
  }
  attr {
    key: "use_locking"
    value {
      b: true
    }
  }
  attr {
    key: "validate_shape"
    value {
      b: true
    }
  }
}
node {
  name: "vgg_16/conv5/conv5_2/weights/read"
  op: "Identity"
  input: "vgg_16/conv5/conv5_2/weights"
  attr {
    key: "T"
    value {
      type: DT_FLOAT
    }
  }
  attr {
    key: "_class"
    value {
      list {
        s: "loc:@vgg_16/conv5/conv5_2/weights"
      }
    }
  }
}
node {
  name: "vgg_16/conv5/conv5_2/kernel/Regularizer/l2_regularizer/scale"
  op: "Const"
  attr {
    key: "_class"
    value {
      list {
        s: "loc:@vgg_16/conv5/conv5_2/weights"
      }
    }
  }
  attr {
    key: "dtype"
    value {
      type: DT_FLOAT
    }
  }
  attr {
    key: "value"
    value {
      tensor {
        dtype: DT_FLOAT
        tensor_shape {
        }
        float_val: 0.0005000000237487257
      }
    }
  }
}
node {
  name: "vgg_16/conv5/conv5_2/kernel/Regularizer/l2_regularizer/L2Loss"
  op: "L2Loss"
  input: "vgg_16/conv5/conv5_2/weights/read"
  attr {
    key: "T"
    value {
      type: DT_FLOAT
    }
  }
  attr {
    key: "_class"
    value {
      list {
        s: "loc:@vgg_16/conv5/conv5_2/weights"
      }
    }
  }
}
node {
  name: "vgg_16/conv5/conv5_2/kernel/Regularizer/l2_regularizer"
  op: "Mul"
  input: "vgg_16/conv5/conv5_2/kernel/Regularizer/l2_regularizer/scale"
  input: "vgg_16/conv5/conv5_2/kernel/Regularizer/l2_regularizer/L2Loss"
  attr {
    key: "T"
    value {
      type: DT_FLOAT
    }
  }
  attr {
    key: "_class"
    value {
      list {
        s: "loc:@vgg_16/conv5/conv5_2/weights"
      }
    }
  }
}
node {
  name: "vgg_16/conv5/conv5_2/biases/Initializer/Const"
  op: "Const"
  attr {
    key: "_class"
    value {
      list {
        s: "loc:@vgg_16/conv5/conv5_2/biases"
      }
    }
  }
  attr {
    key: "dtype"
    value {
      type: DT_FLOAT
    }
  }
  attr {
    key: "value"
    value {
      tensor {
        dtype: DT_FLOAT
        tensor_shape {
          dim {
            size: 512
          }
        }
        float_val: 0.0
      }
    }
  }
}
node {
  name: "vgg_16/conv5/conv5_2/biases"
  op: "VariableV2"
  attr {
    key: "_class"
    value {
      list {
        s: "loc:@vgg_16/conv5/conv5_2/biases"
      }
    }
  }
  attr {
    key: "container"
    value {
      s: ""
    }
  }
  attr {
    key: "dtype"
    value {
      type: DT_FLOAT
    }
  }
  attr {
    key: "shape"
    value {
      shape {
        dim {
          size: 512
        }
      }
    }
  }
  attr {
    key: "shared_name"
    value {
      s: ""
    }
  }
}
node {
  name: "vgg_16/conv5/conv5_2/biases/Assign"
  op: "Assign"
  input: "vgg_16/conv5/conv5_2/biases"
  input: "vgg_16/conv5/conv5_2/biases/Initializer/Const"
  attr {
    key: "T"
    value {
      type: DT_FLOAT
    }
  }
  attr {
    key: "_class"
    value {
      list {
        s: "loc:@vgg_16/conv5/conv5_2/biases"
      }
    }
  }
  attr {
    key: "use_locking"
    value {
      b: true
    }
  }
  attr {
    key: "validate_shape"
    value {
      b: true
    }
  }
}
node {
  name: "vgg_16/conv5/conv5_2/biases/read"
  op: "Identity"
  input: "vgg_16/conv5/conv5_2/biases"
  attr {
    key: "T"
    value {
      type: DT_FLOAT
    }
  }
  attr {
    key: "_class"
    value {
      list {
        s: "loc:@vgg_16/conv5/conv5_2/biases"
      }
    }
  }
}
node {
  name: "vgg_16/conv5/conv5_2/dilation_rate"
  op: "Const"
  attr {
    key: "dtype"
    value {
      type: DT_INT32
    }
  }
  attr {
    key: "value"
    value {
      tensor {
        dtype: DT_INT32
        tensor_shape {
          dim {
            size: 2
          }
        }
        tensor_content: "\001\000\000\000\001\000\000\000"
      }
    }
  }
}
node {
  name: "vgg_16/conv5/conv5_2/Conv2D"
  op: "Conv2D"
  input: "vgg_16/conv5/conv5_1/Relu"
  input: "vgg_16/conv5/conv5_2/weights/read"
  attr {
    key: "T"
    value {
      type: DT_FLOAT
    }
  }
  attr {
    key: "data_format"
    value {
      s: "NHWC"
    }
  }
  attr {
    key: "dilations"
    value {
      list {
        i: 1
        i: 1
        i: 1
        i: 1
      }
    }
  }
  attr {
    key: "padding"
    value {
      s: "SAME"
    }
  }
  attr {
    key: "strides"
    value {
      list {
        i: 1
        i: 1
        i: 1
        i: 1
      }
    }
  }
  attr {
    key: "use_cudnn_on_gpu"
    value {
      b: true
    }
  }
}
node {
  name: "vgg_16/conv5/conv5_2/BiasAdd"
  op: "BiasAdd"
  input: "vgg_16/conv5/conv5_2/Conv2D"
  input: "vgg_16/conv5/conv5_2/biases/read"
  attr {
    key: "T"
    value {
      type: DT_FLOAT
    }
  }
  attr {
    key: "data_format"
    value {
      s: "NHWC"
    }
  }
}
node {
  name: "vgg_16/conv5/conv5_2/Relu"
  op: "Relu"
  input: "vgg_16/conv5/conv5_2/BiasAdd"
  attr {
    key: "T"
    value {
      type: DT_FLOAT
    }
  }
}
node {
  name: "vgg_16/conv5/conv5_3/weights/Initializer/random_uniform/shape"
  op: "Const"
  attr {
    key: "_class"
    value {
      list {
        s: "loc:@vgg_16/conv5/conv5_3/weights"
      }
    }
  }
  attr {
    key: "dtype"
    value {
      type: DT_INT32
    }
  }
  attr {
    key: "value"
    value {
      tensor {
        dtype: DT_INT32
        tensor_shape {
          dim {
            size: 4
          }
        }
        tensor_content: "\003\000\000\000\003\000\000\000\000\002\000\000\000\002\000\000"
      }
    }
  }
}
node {
  name: "vgg_16/conv5/conv5_3/weights/Initializer/random_uniform/min"
  op: "Const"
  attr {
    key: "_class"
    value {
      list {
        s: "loc:@vgg_16/conv5/conv5_3/weights"
      }
    }
  }
  attr {
    key: "dtype"
    value {
      type: DT_FLOAT
    }
  }
  attr {
    key: "value"
    value {
      tensor {
        dtype: DT_FLOAT
        tensor_shape {
        }
        float_val: -0.025515519082546234
      }
    }
  }
}
node {
  name: "vgg_16/conv5/conv5_3/weights/Initializer/random_uniform/max"
  op: "Const"
  attr {
    key: "_class"
    value {
      list {
        s: "loc:@vgg_16/conv5/conv5_3/weights"
      }
    }
  }
  attr {
    key: "dtype"
    value {
      type: DT_FLOAT
    }
  }
  attr {
    key: "value"
    value {
      tensor {
        dtype: DT_FLOAT
        tensor_shape {
        }
        float_val: 0.025515519082546234
      }
    }
  }
}
node {
  name: "vgg_16/conv5/conv5_3/weights/Initializer/random_uniform/RandomUniform"
  op: "RandomUniform"
  input: "vgg_16/conv5/conv5_3/weights/Initializer/random_uniform/shape"
  attr {
    key: "T"
    value {
      type: DT_INT32
    }
  }
  attr {
    key: "_class"
    value {
      list {
        s: "loc:@vgg_16/conv5/conv5_3/weights"
      }
    }
  }
  attr {
    key: "dtype"
    value {
      type: DT_FLOAT
    }
  }
  attr {
    key: "seed"
    value {
      i: 3
    }
  }
  attr {
    key: "seed2"
    value {
      i: 262
    }
  }
}
node {
  name: "vgg_16/conv5/conv5_3/weights/Initializer/random_uniform/sub"
  op: "Sub"
  input: "vgg_16/conv5/conv5_3/weights/Initializer/random_uniform/max"
  input: "vgg_16/conv5/conv5_3/weights/Initializer/random_uniform/min"
  attr {
    key: "T"
    value {
      type: DT_FLOAT
    }
  }
  attr {
    key: "_class"
    value {
      list {
        s: "loc:@vgg_16/conv5/conv5_3/weights"
      }
    }
  }
}
node {
  name: "vgg_16/conv5/conv5_3/weights/Initializer/random_uniform/mul"
  op: "Mul"
  input: "vgg_16/conv5/conv5_3/weights/Initializer/random_uniform/RandomUniform"
  input: "vgg_16/conv5/conv5_3/weights/Initializer/random_uniform/sub"
  attr {
    key: "T"
    value {
      type: DT_FLOAT
    }
  }
  attr {
    key: "_class"
    value {
      list {
        s: "loc:@vgg_16/conv5/conv5_3/weights"
      }
    }
  }
}
node {
  name: "vgg_16/conv5/conv5_3/weights/Initializer/random_uniform"
  op: "Add"
  input: "vgg_16/conv5/conv5_3/weights/Initializer/random_uniform/mul"
  input: "vgg_16/conv5/conv5_3/weights/Initializer/random_uniform/min"
  attr {
    key: "T"
    value {
      type: DT_FLOAT
    }
  }
  attr {
    key: "_class"
    value {
      list {
        s: "loc:@vgg_16/conv5/conv5_3/weights"
      }
    }
  }
}
node {
  name: "vgg_16/conv5/conv5_3/weights"
  op: "VariableV2"
  attr {
    key: "_class"
    value {
      list {
        s: "loc:@vgg_16/conv5/conv5_3/weights"
      }
    }
  }
  attr {
    key: "container"
    value {
      s: ""
    }
  }
  attr {
    key: "dtype"
    value {
      type: DT_FLOAT
    }
  }
  attr {
    key: "shape"
    value {
      shape {
        dim {
          size: 3
        }
        dim {
          size: 3
        }
        dim {
          size: 512
        }
        dim {
          size: 512
        }
      }
    }
  }
  attr {
    key: "shared_name"
    value {
      s: ""
    }
  }
}
node {
  name: "vgg_16/conv5/conv5_3/weights/Assign"
  op: "Assign"
  input: "vgg_16/conv5/conv5_3/weights"
  input: "vgg_16/conv5/conv5_3/weights/Initializer/random_uniform"
  attr {
    key: "T"
    value {
      type: DT_FLOAT
    }
  }
  attr {
    key: "_class"
    value {
      list {
        s: "loc:@vgg_16/conv5/conv5_3/weights"
      }
    }
  }
  attr {
    key: "use_locking"
    value {
      b: true
    }
  }
  attr {
    key: "validate_shape"
    value {
      b: true
    }
  }
}
node {
  name: "vgg_16/conv5/conv5_3/weights/read"
  op: "Identity"
  input: "vgg_16/conv5/conv5_3/weights"
  attr {
    key: "T"
    value {
      type: DT_FLOAT
    }
  }
  attr {
    key: "_class"
    value {
      list {
        s: "loc:@vgg_16/conv5/conv5_3/weights"
      }
    }
  }
}
node {
  name: "vgg_16/conv5/conv5_3/kernel/Regularizer/l2_regularizer/scale"
  op: "Const"
  attr {
    key: "_class"
    value {
      list {
        s: "loc:@vgg_16/conv5/conv5_3/weights"
      }
    }
  }
  attr {
    key: "dtype"
    value {
      type: DT_FLOAT
    }
  }
  attr {
    key: "value"
    value {
      tensor {
        dtype: DT_FLOAT
        tensor_shape {
        }
        float_val: 0.0005000000237487257
      }
    }
  }
}
node {
  name: "vgg_16/conv5/conv5_3/kernel/Regularizer/l2_regularizer/L2Loss"
  op: "L2Loss"
  input: "vgg_16/conv5/conv5_3/weights/read"
  attr {
    key: "T"
    value {
      type: DT_FLOAT
    }
  }
  attr {
    key: "_class"
    value {
      list {
        s: "loc:@vgg_16/conv5/conv5_3/weights"
      }
    }
  }
}
node {
  name: "vgg_16/conv5/conv5_3/kernel/Regularizer/l2_regularizer"
  op: "Mul"
  input: "vgg_16/conv5/conv5_3/kernel/Regularizer/l2_regularizer/scale"
  input: "vgg_16/conv5/conv5_3/kernel/Regularizer/l2_regularizer/L2Loss"
  attr {
    key: "T"
    value {
      type: DT_FLOAT
    }
  }
  attr {
    key: "_class"
    value {
      list {
        s: "loc:@vgg_16/conv5/conv5_3/weights"
      }
    }
  }
}
node {
  name: "vgg_16/conv5/conv5_3/biases/Initializer/Const"
  op: "Const"
  attr {
    key: "_class"
    value {
      list {
        s: "loc:@vgg_16/conv5/conv5_3/biases"
      }
    }
  }
  attr {
    key: "dtype"
    value {
      type: DT_FLOAT
    }
  }
  attr {
    key: "value"
    value {
      tensor {
        dtype: DT_FLOAT
        tensor_shape {
          dim {
            size: 512
          }
        }
        float_val: 0.0
      }
    }
  }
}
node {
  name: "vgg_16/conv5/conv5_3/biases"
  op: "VariableV2"
  attr {
    key: "_class"
    value {
      list {
        s: "loc:@vgg_16/conv5/conv5_3/biases"
      }
    }
  }
  attr {
    key: "container"
    value {
      s: ""
    }
  }
  attr {
    key: "dtype"
    value {
      type: DT_FLOAT
    }
  }
  attr {
    key: "shape"
    value {
      shape {
        dim {
          size: 512
        }
      }
    }
  }
  attr {
    key: "shared_name"
    value {
      s: ""
    }
  }
}
node {
  name: "vgg_16/conv5/conv5_3/biases/Assign"
  op: "Assign"
  input: "vgg_16/conv5/conv5_3/biases"
  input: "vgg_16/conv5/conv5_3/biases/Initializer/Const"
  attr {
    key: "T"
    value {
      type: DT_FLOAT
    }
  }
  attr {
    key: "_class"
    value {
      list {
        s: "loc:@vgg_16/conv5/conv5_3/biases"
      }
    }
  }
  attr {
    key: "use_locking"
    value {
      b: true
    }
  }
  attr {
    key: "validate_shape"
    value {
      b: true
    }
  }
}
node {
  name: "vgg_16/conv5/conv5_3/biases/read"
  op: "Identity"
  input: "vgg_16/conv5/conv5_3/biases"
  attr {
    key: "T"
    value {
      type: DT_FLOAT
    }
  }
  attr {
    key: "_class"
    value {
      list {
        s: "loc:@vgg_16/conv5/conv5_3/biases"
      }
    }
  }
}
node {
  name: "vgg_16/conv5/conv5_3/dilation_rate"
  op: "Const"
  attr {
    key: "dtype"
    value {
      type: DT_INT32
    }
  }
  attr {
    key: "value"
    value {
      tensor {
        dtype: DT_INT32
        tensor_shape {
          dim {
            size: 2
          }
        }
        tensor_content: "\001\000\000\000\001\000\000\000"
      }
    }
  }
}
node {
  name: "vgg_16/conv5/conv5_3/Conv2D"
  op: "Conv2D"
  input: "vgg_16/conv5/conv5_2/Relu"
  input: "vgg_16/conv5/conv5_3/weights/read"
  attr {
    key: "T"
    value {
      type: DT_FLOAT
    }
  }
  attr {
    key: "data_format"
    value {
      s: "NHWC"
    }
  }
  attr {
    key: "dilations"
    value {
      list {
        i: 1
        i: 1
        i: 1
        i: 1
      }
    }
  }
  attr {
    key: "padding"
    value {
      s: "SAME"
    }
  }
  attr {
    key: "strides"
    value {
      list {
        i: 1
        i: 1
        i: 1
        i: 1
      }
    }
  }
  attr {
    key: "use_cudnn_on_gpu"
    value {
      b: true
    }
  }
}
node {
  name: "vgg_16/conv5/conv5_3/BiasAdd"
  op: "BiasAdd"
  input: "vgg_16/conv5/conv5_3/Conv2D"
  input: "vgg_16/conv5/conv5_3/biases/read"
  attr {
    key: "T"
    value {
      type: DT_FLOAT
    }
  }
  attr {
    key: "data_format"
    value {
      s: "NHWC"
    }
  }
}
node {
  name: "vgg_16/conv5/conv5_3/Relu"
  op: "Relu"
  input: "vgg_16/conv5/conv5_3/BiasAdd"
  attr {
    key: "T"
    value {
      type: DT_FLOAT
    }
  }
}
node {
  name: "vgg_16/ANCHOR_default/strided_slice/stack"
  op: "Const"
  attr {
    key: "dtype"
    value {
      type: DT_INT32
    }
  }
  attr {
    key: "value"
    value {
      tensor {
        dtype: DT_INT32
        tensor_shape {
          dim {
            size: 2
          }
        }
        tensor_content: "\000\000\000\000\000\000\000\000"
      }
    }
  }
}
node {
  name: "vgg_16/ANCHOR_default/strided_slice/stack_1"
  op: "Const"
  attr {
    key: "dtype"
    value {
      type: DT_INT32
    }
  }
  attr {
    key: "value"
    value {
      tensor {
        dtype: DT_INT32
        tensor_shape {
          dim {
            size: 2
          }
        }
        tensor_content: "\001\000\000\000\001\000\000\000"
      }
    }
  }
}
node {
  name: "vgg_16/ANCHOR_default/strided_slice/stack_2"
  op: "Const"
  attr {
    key: "dtype"
    value {
      type: DT_INT32
    }
  }
  attr {
    key: "value"
    value {
      tensor {
        dtype: DT_INT32
        tensor_shape {
          dim {
            size: 2
          }
        }
        tensor_content: "\001\000\000\000\001\000\000\000"
      }
    }
  }
}
node {
  name: "vgg_16/ANCHOR_default/strided_slice"
  op: "StridedSlice"
  input: "Placeholder_1"
  input: "vgg_16/ANCHOR_default/strided_slice/stack"
  input: "vgg_16/ANCHOR_default/strided_slice/stack_1"
  input: "vgg_16/ANCHOR_default/strided_slice/stack_2"
  attr {
    key: "Index"
    value {
      type: DT_INT32
    }
  }
  attr {
    key: "T"
    value {
      type: DT_FLOAT
    }
  }
  attr {
    key: "begin_mask"
    value {
      i: 0
    }
  }
  attr {
    key: "ellipsis_mask"
    value {
      i: 0
    }
  }
  attr {
    key: "end_mask"
    value {
      i: 0
    }
  }
  attr {
    key: "new_axis_mask"
    value {
      i: 0
    }
  }
  attr {
    key: "shrink_axis_mask"
    value {
      i: 3
    }
  }
}
node {
  name: "vgg_16/ANCHOR_default/truediv/y"
  op: "Const"
  attr {
    key: "dtype"
    value {
      type: DT_FLOAT
    }
  }
  attr {
    key: "value"
    value {
      tensor {
        dtype: DT_FLOAT
        tensor_shape {
        }
        float_val: 16.0
      }
    }
  }
}
node {
  name: "vgg_16/ANCHOR_default/truediv"
  op: "RealDiv"
  input: "vgg_16/ANCHOR_default/strided_slice"
  input: "vgg_16/ANCHOR_default/truediv/y"
  attr {
    key: "T"
    value {
      type: DT_FLOAT
    }
  }
}
node {
  name: "vgg_16/ANCHOR_default/Ceil"
  op: "Ceil"
  input: "vgg_16/ANCHOR_default/truediv"
  attr {
    key: "T"
    value {
      type: DT_FLOAT
    }
  }
}
node {
  name: "vgg_16/ANCHOR_default/ToInt32"
  op: "Cast"
  input: "vgg_16/ANCHOR_default/Ceil"
  attr {
    key: "DstT"
    value {
      type: DT_INT32
    }
  }
  attr {
    key: "SrcT"
    value {
      type: DT_FLOAT
    }
  }
  attr {
    key: "Truncate"
    value {
      b: false
    }
  }
}
node {
  name: "vgg_16/ANCHOR_default/strided_slice_1/stack"
  op: "Const"
  attr {
    key: "dtype"
    value {
      type: DT_INT32
    }
  }
  attr {
    key: "value"
    value {
      tensor {
        dtype: DT_INT32
        tensor_shape {
          dim {
            size: 2
          }
        }
        tensor_content: "\000\000\000\000\001\000\000\000"
      }
    }
  }
}
node {
  name: "vgg_16/ANCHOR_default/strided_slice_1/stack_1"
  op: "Const"
  attr {
    key: "dtype"
    value {
      type: DT_INT32
    }
  }
  attr {
    key: "value"
    value {
      tensor {
        dtype: DT_INT32
        tensor_shape {
          dim {
            size: 2
          }
        }
        tensor_content: "\001\000\000\000\002\000\000\000"
      }
    }
  }
}
node {
  name: "vgg_16/ANCHOR_default/strided_slice_1/stack_2"
  op: "Const"
  attr {
    key: "dtype"
    value {
      type: DT_INT32
    }
  }
  attr {
    key: "value"
    value {
      tensor {
        dtype: DT_INT32
        tensor_shape {
          dim {
            size: 2
          }
        }
        tensor_content: "\001\000\000\000\001\000\000\000"
      }
    }
  }
}
node {
  name: "vgg_16/ANCHOR_default/strided_slice_1"
  op: "StridedSlice"
  input: "Placeholder_1"
  input: "vgg_16/ANCHOR_default/strided_slice_1/stack"
  input: "vgg_16/ANCHOR_default/strided_slice_1/stack_1"
  input: "vgg_16/ANCHOR_default/strided_slice_1/stack_2"
  attr {
    key: "Index"
    value {
      type: DT_INT32
    }
  }
  attr {
    key: "T"
    value {
      type: DT_FLOAT
    }
  }
  attr {
    key: "begin_mask"
    value {
      i: 0
    }
  }
  attr {
    key: "ellipsis_mask"
    value {
      i: 0
    }
  }
  attr {
    key: "end_mask"
    value {
      i: 0
    }
  }
  attr {
    key: "new_axis_mask"
    value {
      i: 0
    }
  }
  attr {
    key: "shrink_axis_mask"
    value {
      i: 3
    }
  }
}
node {
  name: "vgg_16/ANCHOR_default/truediv_1/y"
  op: "Const"
  attr {
    key: "dtype"
    value {
      type: DT_FLOAT
    }
  }
  attr {
    key: "value"
    value {
      tensor {
        dtype: DT_FLOAT
        tensor_shape {
        }
        float_val: 16.0
      }
    }
  }
}
node {
  name: "vgg_16/ANCHOR_default/truediv_1"
  op: "RealDiv"
  input: "vgg_16/ANCHOR_default/strided_slice_1"
  input: "vgg_16/ANCHOR_default/truediv_1/y"
  attr {
    key: "T"
    value {
      type: DT_FLOAT
    }
  }
}
node {
  name: "vgg_16/ANCHOR_default/Ceil_1"
  op: "Ceil"
  input: "vgg_16/ANCHOR_default/truediv_1"
  attr {
    key: "T"
    value {
      type: DT_FLOAT
    }
  }
}
node {
  name: "vgg_16/ANCHOR_default/ToInt32_1"
  op: "Cast"
  input: "vgg_16/ANCHOR_default/Ceil_1"
  attr {
    key: "DstT"
    value {
      type: DT_INT32
    }
  }
  attr {
    key: "SrcT"
    value {
      type: DT_FLOAT
    }
  }
  attr {
    key: "Truncate"
    value {
      b: false
    }
  }
}
node {
  name: "vgg_16/ANCHOR_default/generate_anchors/input_2"
  op: "Const"
  attr {
    key: "dtype"
    value {
      type: DT_INT32
    }
  }
  attr {
    key: "value"
    value {
      tensor {
        dtype: DT_INT32
        tensor_shape {
          dim {
            size: 1
          }
        }
        int_val: 16
      }
    }
  }
}
node {
  name: "vgg_16/ANCHOR_default/generate_anchors/input_3"
  op: "Const"
  attr {
    key: "dtype"
    value {
      type: DT_INT32
    }
  }
  attr {
    key: "value"
    value {
      tensor {
        dtype: DT_INT32
        tensor_shape {
          dim {
            size: 3
          }
        }
        tensor_content: "\010\000\000\000\020\000\000\000 \000\000\000"
      }
    }
  }
}
node {
  name: "vgg_16/ANCHOR_default/generate_anchors/input_4"
  op: "Const"
  attr {
    key: "dtype"
    value {
      type: DT_FLOAT
    }
  }
  attr {
    key: "value"
    value {
      tensor {
        dtype: DT_FLOAT
        tensor_shape {
          dim {
            size: 3
          }
        }
        tensor_content: "\000\000\000?\000\000\200?\000\000\000@"
      }
    }
  }
}
node {
  name: "vgg_16/ANCHOR_default/generate_anchors"
  op: "PyFunc"
  input: "vgg_16/ANCHOR_default/ToInt32"
  input: "vgg_16/ANCHOR_default/ToInt32_1"
  input: "vgg_16/ANCHOR_default/generate_anchors/input_2"
  input: "vgg_16/ANCHOR_default/generate_anchors/input_3"
  input: "vgg_16/ANCHOR_default/generate_anchors/input_4"
  attr {
    key: "Tin"
    value {
      list {
        type: DT_INT32
        type: DT_INT32
        type: DT_INT32
        type: DT_INT32
        type: DT_FLOAT
      }
    }
  }
  attr {
    key: "Tout"
    value {
      list {
        type: DT_FLOAT
        type: DT_INT32
      }
    }
  }
  attr {
    key: "token"
    value {
      s: "pyfunc_0"
    }
  }
}
node {
  name: "vgg_16/rpn_conv/3x3/weights/Initializer/truncated_normal/shape"
  op: "Const"
  attr {
    key: "_class"
    value {
      list {
        s: "loc:@vgg_16/rpn_conv/3x3/weights"
      }
    }
  }
  attr {
    key: "dtype"
    value {
      type: DT_INT32
    }
  }
  attr {
    key: "value"
    value {
      tensor {
        dtype: DT_INT32
        tensor_shape {
          dim {
            size: 4
          }
        }
        tensor_content: "\003\000\000\000\003\000\000\000\000\002\000\000\000\002\000\000"
      }
    }
  }
}
node {
  name: "vgg_16/rpn_conv/3x3/weights/Initializer/truncated_normal/mean"
  op: "Const"
  attr {
    key: "_class"
    value {
      list {
        s: "loc:@vgg_16/rpn_conv/3x3/weights"
      }
    }
  }
  attr {
    key: "dtype"
    value {
      type: DT_FLOAT
    }
  }
  attr {
    key: "value"
    value {
      tensor {
        dtype: DT_FLOAT
        tensor_shape {
        }
        float_val: 0.0
      }
    }
  }
}
node {
  name: "vgg_16/rpn_conv/3x3/weights/Initializer/truncated_normal/stddev"
  op: "Const"
  attr {
    key: "_class"
    value {
      list {
        s: "loc:@vgg_16/rpn_conv/3x3/weights"
      }
    }
  }
  attr {
    key: "dtype"
    value {
      type: DT_FLOAT
    }
  }
  attr {
    key: "value"
    value {
      tensor {
        dtype: DT_FLOAT
        tensor_shape {
        }
        float_val: 0.009999999776482582
      }
    }
  }
}
node {
  name: "vgg_16/rpn_conv/3x3/weights/Initializer/truncated_normal/TruncatedNormal"
  op: "TruncatedNormal"
  input: "vgg_16/rpn_conv/3x3/weights/Initializer/truncated_normal/shape"
  attr {
    key: "T"
    value {
      type: DT_INT32
    }
  }
  attr {
    key: "_class"
    value {
      list {
        s: "loc:@vgg_16/rpn_conv/3x3/weights"
      }
    }
  }
  attr {
    key: "dtype"
    value {
      type: DT_FLOAT
    }
  }
  attr {
    key: "seed"
    value {
      i: 3
    }
  }
  attr {
    key: "seed2"
    value {
      i: 303
    }
  }
}
node {
  name: "vgg_16/rpn_conv/3x3/weights/Initializer/truncated_normal/mul"
  op: "Mul"
  input: "vgg_16/rpn_conv/3x3/weights/Initializer/truncated_normal/TruncatedNormal"
  input: "vgg_16/rpn_conv/3x3/weights/Initializer/truncated_normal/stddev"
  attr {
    key: "T"
    value {
      type: DT_FLOAT
    }
  }
  attr {
    key: "_class"
    value {
      list {
        s: "loc:@vgg_16/rpn_conv/3x3/weights"
      }
    }
  }
}
node {
  name: "vgg_16/rpn_conv/3x3/weights/Initializer/truncated_normal"
  op: "Add"
  input: "vgg_16/rpn_conv/3x3/weights/Initializer/truncated_normal/mul"
  input: "vgg_16/rpn_conv/3x3/weights/Initializer/truncated_normal/mean"
  attr {
    key: "T"
    value {
      type: DT_FLOAT
    }
  }
  attr {
    key: "_class"
    value {
      list {
        s: "loc:@vgg_16/rpn_conv/3x3/weights"
      }
    }
  }
}
node {
  name: "vgg_16/rpn_conv/3x3/weights"
  op: "VariableV2"
  attr {
    key: "_class"
    value {
      list {
        s: "loc:@vgg_16/rpn_conv/3x3/weights"
      }
    }
  }
  attr {
    key: "container"
    value {
      s: ""
    }
  }
  attr {
    key: "dtype"
    value {
      type: DT_FLOAT
    }
  }
  attr {
    key: "shape"
    value {
      shape {
        dim {
          size: 3
        }
        dim {
          size: 3
        }
        dim {
          size: 512
        }
        dim {
          size: 512
        }
      }
    }
  }
  attr {
    key: "shared_name"
    value {
      s: ""
    }
  }
}
node {
  name: "vgg_16/rpn_conv/3x3/weights/Assign"
  op: "Assign"
  input: "vgg_16/rpn_conv/3x3/weights"
  input: "vgg_16/rpn_conv/3x3/weights/Initializer/truncated_normal"
  attr {
    key: "T"
    value {
      type: DT_FLOAT
    }
  }
  attr {
    key: "_class"
    value {
      list {
        s: "loc:@vgg_16/rpn_conv/3x3/weights"
      }
    }
  }
  attr {
    key: "use_locking"
    value {
      b: true
    }
  }
  attr {
    key: "validate_shape"
    value {
      b: true
    }
  }
}
node {
  name: "vgg_16/rpn_conv/3x3/weights/read"
  op: "Identity"
  input: "vgg_16/rpn_conv/3x3/weights"
  attr {
    key: "T"
    value {
      type: DT_FLOAT
    }
  }
  attr {
    key: "_class"
    value {
      list {
        s: "loc:@vgg_16/rpn_conv/3x3/weights"
      }
    }
  }
}
node {
  name: "vgg_16/rpn_conv/3x3/kernel/Regularizer/l2_regularizer/scale"
  op: "Const"
  attr {
    key: "_class"
    value {
      list {
        s: "loc:@vgg_16/rpn_conv/3x3/weights"
      }
    }
  }
  attr {
    key: "dtype"
    value {
      type: DT_FLOAT
    }
  }
  attr {
    key: "value"
    value {
      tensor {
        dtype: DT_FLOAT
        tensor_shape {
        }
        float_val: 0.0005000000237487257
      }
    }
  }
}
node {
  name: "vgg_16/rpn_conv/3x3/kernel/Regularizer/l2_regularizer/L2Loss"
  op: "L2Loss"
  input: "vgg_16/rpn_conv/3x3/weights/read"
  attr {
    key: "T"
    value {
      type: DT_FLOAT
    }
  }
  attr {
    key: "_class"
    value {
      list {
        s: "loc:@vgg_16/rpn_conv/3x3/weights"
      }
    }
  }
}
node {
  name: "vgg_16/rpn_conv/3x3/kernel/Regularizer/l2_regularizer"
  op: "Mul"
  input: "vgg_16/rpn_conv/3x3/kernel/Regularizer/l2_regularizer/scale"
  input: "vgg_16/rpn_conv/3x3/kernel/Regularizer/l2_regularizer/L2Loss"
  attr {
    key: "T"
    value {
      type: DT_FLOAT
    }
  }
  attr {
    key: "_class"
    value {
      list {
        s: "loc:@vgg_16/rpn_conv/3x3/weights"
      }
    }
  }
}
node {
  name: "vgg_16/rpn_conv/3x3/biases/Initializer/Const"
  op: "Const"
  attr {
    key: "_class"
    value {
      list {
        s: "loc:@vgg_16/rpn_conv/3x3/biases"
      }
    }
  }
  attr {
    key: "dtype"
    value {
      type: DT_FLOAT
    }
  }
  attr {
    key: "value"
    value {
      tensor {
        dtype: DT_FLOAT
        tensor_shape {
          dim {
            size: 512
          }
        }
        float_val: 0.0
      }
    }
  }
}
node {
  name: "vgg_16/rpn_conv/3x3/biases"
  op: "VariableV2"
  attr {
    key: "_class"
    value {
      list {
        s: "loc:@vgg_16/rpn_conv/3x3/biases"
      }
    }
  }
  attr {
    key: "container"
    value {
      s: ""
    }
  }
  attr {
    key: "dtype"
    value {
      type: DT_FLOAT
    }
  }
  attr {
    key: "shape"
    value {
      shape {
        dim {
          size: 512
        }
      }
    }
  }
  attr {
    key: "shared_name"
    value {
      s: ""
    }
  }
}
node {
  name: "vgg_16/rpn_conv/3x3/biases/Assign"
  op: "Assign"
  input: "vgg_16/rpn_conv/3x3/biases"
  input: "vgg_16/rpn_conv/3x3/biases/Initializer/Const"
  attr {
    key: "T"
    value {
      type: DT_FLOAT
    }
  }
  attr {
    key: "_class"
    value {
      list {
        s: "loc:@vgg_16/rpn_conv/3x3/biases"
      }
    }
  }
  attr {
    key: "use_locking"
    value {
      b: true
    }
  }
  attr {
    key: "validate_shape"
    value {
      b: true
    }
  }
}
node {
  name: "vgg_16/rpn_conv/3x3/biases/read"
  op: "Identity"
  input: "vgg_16/rpn_conv/3x3/biases"
  attr {
    key: "T"
    value {
      type: DT_FLOAT
    }
  }
  attr {
    key: "_class"
    value {
      list {
        s: "loc:@vgg_16/rpn_conv/3x3/biases"
      }
    }
  }
}
node {
  name: "vgg_16/rpn_conv/3x3/dilation_rate"
  op: "Const"
  attr {
    key: "dtype"
    value {
      type: DT_INT32
    }
  }
  attr {
    key: "value"
    value {
      tensor {
        dtype: DT_INT32
        tensor_shape {
          dim {
            size: 2
          }
        }
        tensor_content: "\001\000\000\000\001\000\000\000"
      }
    }
  }
}
node {
  name: "vgg_16/rpn_conv/3x3/Conv2D"
  op: "Conv2D"
  input: "vgg_16/conv5/conv5_3/Relu"
  input: "vgg_16/rpn_conv/3x3/weights/read"
  attr {
    key: "T"
    value {
      type: DT_FLOAT
    }
  }
  attr {
    key: "data_format"
    value {
      s: "NHWC"
    }
  }
  attr {
    key: "dilations"
    value {
      list {
        i: 1
        i: 1
        i: 1
        i: 1
      }
    }
  }
  attr {
    key: "padding"
    value {
      s: "SAME"
    }
  }
  attr {
    key: "strides"
    value {
      list {
        i: 1
        i: 1
        i: 1
        i: 1
      }
    }
  }
  attr {
    key: "use_cudnn_on_gpu"
    value {
      b: true
    }
  }
}
node {
  name: "vgg_16/rpn_conv/3x3/BiasAdd"
  op: "BiasAdd"
  input: "vgg_16/rpn_conv/3x3/Conv2D"
  input: "vgg_16/rpn_conv/3x3/biases/read"
  attr {
    key: "T"
    value {
      type: DT_FLOAT
    }
  }
  attr {
    key: "data_format"
    value {
      s: "NHWC"
    }
  }
}
node {
  name: "vgg_16/rpn_conv/3x3/Relu"
  op: "Relu"
  input: "vgg_16/rpn_conv/3x3/BiasAdd"
  attr {
    key: "T"
    value {
      type: DT_FLOAT
    }
  }
}
node {
  name: "vgg_16/rpn_cls_score/weights/Initializer/truncated_normal/shape"
  op: "Const"
  attr {
    key: "_class"
    value {
      list {
        s: "loc:@vgg_16/rpn_cls_score/weights"
      }
    }
  }
  attr {
    key: "dtype"
    value {
      type: DT_INT32
    }
  }
  attr {
    key: "value"
    value {
      tensor {
        dtype: DT_INT32
        tensor_shape {
          dim {
            size: 4
          }
        }
        tensor_content: "\001\000\000\000\001\000\000\000\000\002\000\000\022\000\000\000"
      }
    }
  }
}
node {
  name: "vgg_16/rpn_cls_score/weights/Initializer/truncated_normal/mean"
  op: "Const"
  attr {
    key: "_class"
    value {
      list {
        s: "loc:@vgg_16/rpn_cls_score/weights"
      }
    }
  }
  attr {
    key: "dtype"
    value {
      type: DT_FLOAT
    }
  }
  attr {
    key: "value"
    value {
      tensor {
        dtype: DT_FLOAT
        tensor_shape {
        }
        float_val: 0.0
      }
    }
  }
}
node {
  name: "vgg_16/rpn_cls_score/weights/Initializer/truncated_normal/stddev"
  op: "Const"
  attr {
    key: "_class"
    value {
      list {
        s: "loc:@vgg_16/rpn_cls_score/weights"
      }
    }
  }
  attr {
    key: "dtype"
    value {
      type: DT_FLOAT
    }
  }
  attr {
    key: "value"
    value {
      tensor {
        dtype: DT_FLOAT
        tensor_shape {
        }
        float_val: 0.009999999776482582
      }
    }
  }
}
node {
  name: "vgg_16/rpn_cls_score/weights/Initializer/truncated_normal/TruncatedNormal"
  op: "TruncatedNormal"
  input: "vgg_16/rpn_cls_score/weights/Initializer/truncated_normal/shape"
  attr {
    key: "T"
    value {
      type: DT_INT32
    }
  }
  attr {
    key: "_class"
    value {
      list {
        s: "loc:@vgg_16/rpn_cls_score/weights"
      }
    }
  }
  attr {
    key: "dtype"
    value {
      type: DT_FLOAT
    }
  }
  attr {
    key: "seed"
    value {
      i: 3
    }
  }
  attr {
    key: "seed2"
    value {
      i: 323
    }
  }
}
node {
  name: "vgg_16/rpn_cls_score/weights/Initializer/truncated_normal/mul"
  op: "Mul"
  input: "vgg_16/rpn_cls_score/weights/Initializer/truncated_normal/TruncatedNormal"
  input: "vgg_16/rpn_cls_score/weights/Initializer/truncated_normal/stddev"
  attr {
    key: "T"
    value {
      type: DT_FLOAT
    }
  }
  attr {
    key: "_class"
    value {
      list {
        s: "loc:@vgg_16/rpn_cls_score/weights"
      }
    }
  }
}
node {
  name: "vgg_16/rpn_cls_score/weights/Initializer/truncated_normal"
  op: "Add"
  input: "vgg_16/rpn_cls_score/weights/Initializer/truncated_normal/mul"
  input: "vgg_16/rpn_cls_score/weights/Initializer/truncated_normal/mean"
  attr {
    key: "T"
    value {
      type: DT_FLOAT
    }
  }
  attr {
    key: "_class"
    value {
      list {
        s: "loc:@vgg_16/rpn_cls_score/weights"
      }
    }
  }
}
node {
  name: "vgg_16/rpn_cls_score/weights"
  op: "VariableV2"
  attr {
    key: "_class"
    value {
      list {
        s: "loc:@vgg_16/rpn_cls_score/weights"
      }
    }
  }
  attr {
    key: "container"
    value {
      s: ""
    }
  }
  attr {
    key: "dtype"
    value {
      type: DT_FLOAT
    }
  }
  attr {
    key: "shape"
    value {
      shape {
        dim {
          size: 1
        }
        dim {
          size: 1
        }
        dim {
          size: 512
        }
        dim {
          size: 18
        }
      }
    }
  }
  attr {
    key: "shared_name"
    value {
      s: ""
    }
  }
}
node {
  name: "vgg_16/rpn_cls_score/weights/Assign"
  op: "Assign"
  input: "vgg_16/rpn_cls_score/weights"
  input: "vgg_16/rpn_cls_score/weights/Initializer/truncated_normal"
  attr {
    key: "T"
    value {
      type: DT_FLOAT
    }
  }
  attr {
    key: "_class"
    value {
      list {
        s: "loc:@vgg_16/rpn_cls_score/weights"
      }
    }
  }
  attr {
    key: "use_locking"
    value {
      b: true
    }
  }
  attr {
    key: "validate_shape"
    value {
      b: true
    }
  }
}
node {
  name: "vgg_16/rpn_cls_score/weights/read"
  op: "Identity"
  input: "vgg_16/rpn_cls_score/weights"
  attr {
    key: "T"
    value {
      type: DT_FLOAT
    }
  }
  attr {
    key: "_class"
    value {
      list {
        s: "loc:@vgg_16/rpn_cls_score/weights"
      }
    }
  }
}
node {
  name: "vgg_16/rpn_cls_score/kernel/Regularizer/l2_regularizer/scale"
  op: "Const"
  attr {
    key: "_class"
    value {
      list {
        s: "loc:@vgg_16/rpn_cls_score/weights"
      }
    }
  }
  attr {
    key: "dtype"
    value {
      type: DT_FLOAT
    }
  }
  attr {
    key: "value"
    value {
      tensor {
        dtype: DT_FLOAT
        tensor_shape {
        }
        float_val: 0.0005000000237487257
      }
    }
  }
}
node {
  name: "vgg_16/rpn_cls_score/kernel/Regularizer/l2_regularizer/L2Loss"
  op: "L2Loss"
  input: "vgg_16/rpn_cls_score/weights/read"
  attr {
    key: "T"
    value {
      type: DT_FLOAT
    }
  }
  attr {
    key: "_class"
    value {
      list {
        s: "loc:@vgg_16/rpn_cls_score/weights"
      }
    }
  }
}
node {
  name: "vgg_16/rpn_cls_score/kernel/Regularizer/l2_regularizer"
  op: "Mul"
  input: "vgg_16/rpn_cls_score/kernel/Regularizer/l2_regularizer/scale"
  input: "vgg_16/rpn_cls_score/kernel/Regularizer/l2_regularizer/L2Loss"
  attr {
    key: "T"
    value {
      type: DT_FLOAT
    }
  }
  attr {
    key: "_class"
    value {
      list {
        s: "loc:@vgg_16/rpn_cls_score/weights"
      }
    }
  }
}
node {
  name: "vgg_16/rpn_cls_score/biases/Initializer/Const"
  op: "Const"
  attr {
    key: "_class"
    value {
      list {
        s: "loc:@vgg_16/rpn_cls_score/biases"
      }
    }
  }
  attr {
    key: "dtype"
    value {
      type: DT_FLOAT
    }
  }
  attr {
    key: "value"
    value {
      tensor {
        dtype: DT_FLOAT
        tensor_shape {
          dim {
            size: 18
          }
        }
        float_val: 0.0
      }
    }
  }
}
node {
  name: "vgg_16/rpn_cls_score/biases"
  op: "VariableV2"
  attr {
    key: "_class"
    value {
      list {
        s: "loc:@vgg_16/rpn_cls_score/biases"
      }
    }
  }
  attr {
    key: "container"
    value {
      s: ""
    }
  }
  attr {
    key: "dtype"
    value {
      type: DT_FLOAT
    }
  }
  attr {
    key: "shape"
    value {
      shape {
        dim {
          size: 18
        }
      }
    }
  }
  attr {
    key: "shared_name"
    value {
      s: ""
    }
  }
}
node {
  name: "vgg_16/rpn_cls_score/biases/Assign"
  op: "Assign"
  input: "vgg_16/rpn_cls_score/biases"
  input: "vgg_16/rpn_cls_score/biases/Initializer/Const"
  attr {
    key: "T"
    value {
      type: DT_FLOAT
    }
  }
  attr {
    key: "_class"
    value {
      list {
        s: "loc:@vgg_16/rpn_cls_score/biases"
      }
    }
  }
  attr {
    key: "use_locking"
    value {
      b: true
    }
  }
  attr {
    key: "validate_shape"
    value {
      b: true
    }
  }
}
node {
  name: "vgg_16/rpn_cls_score/biases/read"
  op: "Identity"
  input: "vgg_16/rpn_cls_score/biases"
  attr {
    key: "T"
    value {
      type: DT_FLOAT
    }
  }
  attr {
    key: "_class"
    value {
      list {
        s: "loc:@vgg_16/rpn_cls_score/biases"
      }
    }
  }
}
node {
  name: "vgg_16/rpn_cls_score/dilation_rate"
  op: "Const"
  attr {
    key: "dtype"
    value {
      type: DT_INT32
    }
  }
  attr {
    key: "value"
    value {
      tensor {
        dtype: DT_INT32
        tensor_shape {
          dim {
            size: 2
          }
        }
        tensor_content: "\001\000\000\000\001\000\000\000"
      }
    }
  }
}
node {
  name: "vgg_16/rpn_cls_score/Conv2D"
  op: "Conv2D"
  input: "vgg_16/rpn_conv/3x3/Relu"
  input: "vgg_16/rpn_cls_score/weights/read"
  attr {
    key: "T"
    value {
      type: DT_FLOAT
    }
  }
  attr {
    key: "data_format"
    value {
      s: "NHWC"
    }
  }
  attr {
    key: "dilations"
    value {
      list {
        i: 1
        i: 1
        i: 1
        i: 1
      }
    }
  }
  attr {
    key: "padding"
    value {
      s: "VALID"
    }
  }
  attr {
    key: "strides"
    value {
      list {
        i: 1
        i: 1
        i: 1
        i: 1
      }
    }
  }
  attr {
    key: "use_cudnn_on_gpu"
    value {
      b: true
    }
  }
}
node {
  name: "vgg_16/rpn_cls_score/BiasAdd"
  op: "BiasAdd"
  input: "vgg_16/rpn_cls_score/Conv2D"
  input: "vgg_16/rpn_cls_score/biases/read"
  attr {
    key: "T"
    value {
      type: DT_FLOAT
    }
  }
  attr {
    key: "data_format"
    value {
      s: "NHWC"
    }
  }
}
node {
  name: "vgg_16/Shape"
  op: "Shape"
  input: "vgg_16/rpn_cls_score/BiasAdd"
  attr {
    key: "T"
    value {
      type: DT_FLOAT
    }
  }
  attr {
    key: "out_type"
    value {
      type: DT_INT32
    }
  }
}
node {
  name: "vgg_16/rpn_cls_score_reshape/transpose/perm"
  op: "Const"
  attr {
    key: "dtype"
    value {
      type: DT_INT32
    }
  }
  attr {
    key: "value"
    value {
      tensor {
        dtype: DT_INT32
        tensor_shape {
          dim {
            size: 4
          }
        }
        tensor_content: "\000\000\000\000\003\000\000\000\001\000\000\000\002\000\000\000"
      }
    }
  }
}
node {
  name: "vgg_16/rpn_cls_score_reshape/transpose"
  op: "Transpose"
  input: "vgg_16/rpn_cls_score/BiasAdd"
  input: "vgg_16/rpn_cls_score_reshape/transpose/perm"
  attr {
    key: "T"
    value {
      type: DT_FLOAT
    }
  }
  attr {
    key: "Tperm"
    value {
      type: DT_INT32
    }
  }
}
node {
  name: "vgg_16/rpn_cls_score_reshape/strided_slice/stack"
  op: "Const"
  attr {
    key: "dtype"
    value {
      type: DT_INT32
    }
  }
  attr {
    key: "value"
    value {
      tensor {
        dtype: DT_INT32
        tensor_shape {
          dim {
            size: 1
          }
        }
        int_val: 2
      }
    }
  }
}
node {
  name: "vgg_16/rpn_cls_score_reshape/strided_slice/stack_1"
  op: "Const"
  attr {
    key: "dtype"
    value {
      type: DT_INT32
    }
  }
  attr {
    key: "value"
    value {
      tensor {
        dtype: DT_INT32
        tensor_shape {
          dim {
            size: 1
          }
        }
        int_val: 3
      }
    }
  }
}
node {
  name: "vgg_16/rpn_cls_score_reshape/strided_slice/stack_2"
  op: "Const"
  attr {
    key: "dtype"
    value {
      type: DT_INT32
    }
  }
  attr {
    key: "value"
    value {
      tensor {
        dtype: DT_INT32
        tensor_shape {
          dim {
            size: 1
          }
        }
        int_val: 1
      }
    }
  }
}
node {
  name: "vgg_16/rpn_cls_score_reshape/strided_slice"
  op: "StridedSlice"
  input: "vgg_16/Shape"
  input: "vgg_16/rpn_cls_score_reshape/strided_slice/stack"
  input: "vgg_16/rpn_cls_score_reshape/strided_slice/stack_1"
  input: "vgg_16/rpn_cls_score_reshape/strided_slice/stack_2"
  attr {
    key: "Index"
    value {
      type: DT_INT32
    }
  }
  attr {
    key: "T"
    value {
      type: DT_INT32
    }
  }
  attr {
    key: "begin_mask"
    value {
      i: 0
    }
  }
  attr {
    key: "ellipsis_mask"
    value {
      i: 0
    }
  }
  attr {
    key: "end_mask"
    value {
      i: 0
    }
  }
  attr {
    key: "new_axis_mask"
    value {
      i: 0
    }
  }
  attr {
    key: "shrink_axis_mask"
    value {
      i: 1
    }
  }
}
node {
  name: "vgg_16/rpn_cls_score_reshape/concat/values_0"
  op: "Const"
  attr {
    key: "dtype"
    value {
      type: DT_INT32
    }
  }
  attr {
    key: "value"
    value {
      tensor {
        dtype: DT_INT32
        tensor_shape {
          dim {
            size: 1
          }
        }
        int_val: 1
      }
    }
  }
}
node {
  name: "vgg_16/rpn_cls_score_reshape/concat/values_1"
  op: "Const"
  attr {
    key: "dtype"
    value {
      type: DT_INT32
    }
  }
  attr {
    key: "value"
    value {
      tensor {
        dtype: DT_INT32
        tensor_shape {
          dim {
            size: 2
          }
        }
        tensor_content: "\002\000\000\000\377\377\377\377"
      }
    }
  }
}
node {
  name: "vgg_16/rpn_cls_score_reshape/concat/values_2"
  op: "Pack"
  input: "vgg_16/rpn_cls_score_reshape/strided_slice"
  attr {
    key: "N"
    value {
      i: 1
    }
  }
  attr {
    key: "T"
    value {
      type: DT_INT32
    }
  }
  attr {
    key: "axis"
    value {
      i: 0
    }
  }
}
node {
  name: "vgg_16/rpn_cls_score_reshape/concat/axis"
  op: "Const"
  attr {
    key: "dtype"
    value {
      type: DT_INT32
    }
  }
  attr {
    key: "value"
    value {
      tensor {
        dtype: DT_INT32
        tensor_shape {
        }
        int_val: 0
      }
    }
  }
}
node {
  name: "vgg_16/rpn_cls_score_reshape/concat"
  op: "ConcatV2"
  input: "vgg_16/rpn_cls_score_reshape/concat/values_0"
  input: "vgg_16/rpn_cls_score_reshape/concat/values_1"
  input: "vgg_16/rpn_cls_score_reshape/concat/values_2"
  input: "vgg_16/rpn_cls_score_reshape/concat/axis"
  attr {
    key: "N"
    value {
      i: 3
    }
  }
  attr {
    key: "T"
    value {
      type: DT_INT32
    }
  }
  attr {
    key: "Tidx"
    value {
…
      b: true
    }
  }
  attr {
    key: "validate_shape"
    value {
      b: true
    }
  }
}
node {
  name: "save/Assign_71"
  op: "Assign"
  input: "vgg_16/rpn_conv/3x3/weights"
  input: "save/RestoreV2:71"
  attr {
    key: "T"
    value {
      type: DT_FLOAT
    }
  }
  attr {
    key: "_class"
    value {
      list {
        s: "loc:@vgg_16/rpn_conv/3x3/weights"
      }
    }
  }
  attr {
    key: "use_locking"
    value {
      b: true
    }
  }
  attr {
    key: "validate_shape"
    value {
      b: true
    }
  }
}
node {
  name: "save/Assign_72"
  op: "Assign"
  input: "vgg_16/rpn_conv/3x3/weights/Momentum"
  input: "save/RestoreV2:72"
  attr {
    key: "T"
    value {
      type: DT_FLOAT
    }
  }
  attr {
    key: "_class"
    value {
      list {
        s: "loc:@vgg_16/rpn_conv/3x3/weights"
      }
    }
  }
  attr {
    key: "use_locking"
    value {
      b: true
    }
  }
  attr {
    key: "validate_shape"
    value {
      b: true
    }
  }
}
node {
  name: "save/restore_all"
  op: "NoOp"
  input: "^save/Assign"
  input: "^save/Assign_1"
  input: "^save/Assign_10"
  input: "^save/Assign_11"
  input: "^save/Assign_12"
  input: "^save/Assign_13"
  input: "^save/Assign_14"
  input: "^save/Assign_15"
  input: "^save/Assign_16"
  input: "^save/Assign_17"
  input: "^save/Assign_18"
  input: "^save/Assign_19"
  input: "^save/Assign_2"
  input: "^save/Assign_20"
  input: "^save/Assign_21"
  input: "^save/Assign_22"
  input: "^save/Assign_23"
  input: "^save/Assign_24"
  input: "^save/Assign_25"
  input: "^save/Assign_26"
  input: "^save/Assign_27"
  input: "^save/Assign_28"
  input: "^save/Assign_29"
  input: "^save/Assign_3"
  input: "^save/Assign_30"
  input: "^save/Assign_31"
  input: "^save/Assign_32"
  input: "^save/Assign_33"
  input: "^save/Assign_34"
  input: "^save/Assign_35"
  input: "^save/Assign_36"
  input: "^save/Assign_37"
  input: "^save/Assign_38"
  input: "^save/Assign_39"
  input: "^save/Assign_4"
  input: "^save/Assign_40"
  input: "^save/Assign_41"
  input: "^save/Assign_42"
  input: "^save/Assign_43"
  input: "^save/Assign_44"
  input: "^save/Assign_45"
  input: "^save/Assign_46"
  input: "^save/Assign_47"
  input: "^save/Assign_48"
  input: "^save/Assign_49"
  input: "^save/Assign_5"
  input: "^save/Assign_50"
  input: "^save/Assign_51"
  input: "^save/Assign_52"
  input: "^save/Assign_53"
  input: "^save/Assign_54"
  input: "^save/Assign_55"
  input: "^save/Assign_56"
  input: "^save/Assign_57"
  input: "^save/Assign_58"
  input: "^save/Assign_59"
  input: "^save/Assign_6"
  input: "^save/Assign_60"
  input: "^save/Assign_61"
  input: "^save/Assign_62"
  input: "^save/Assign_63"
  input: "^save/Assign_64"
  input: "^save/Assign_65"
  input: "^save/Assign_66"
  input: "^save/Assign_67"
  input: "^save/Assign_68"
  input: "^save/Assign_69"
  input: "^save/Assign_7"
  input: "^save/Assign_70"
  input: "^save/Assign_71"
  input: "^save/Assign_72"
  input: "^save/Assign_8"
  input: "^save/Assign_9"
}
node {
  name: "init"
  op: "NoOp"
  input: "^Variable/Assign"
  input: "^vgg_16/bbox_pred/biases/Assign"
  input: "^vgg_16/bbox_pred/biases/Momentum/Assign"
  input: "^vgg_16/bbox_pred/weights/Assign"
  input: "^vgg_16/bbox_pred/weights/Momentum/Assign"
  input: "^vgg_16/cls_score/biases/Assign"
  input: "^vgg_16/cls_score/biases/Momentum/Assign"
  input: "^vgg_16/cls_score/weights/Assign"
  input: "^vgg_16/cls_score/weights/Momentum/Assign"
  input: "^vgg_16/conv1/conv1_1/biases/Assign"
  input: "^vgg_16/conv1/conv1_1/weights/Assign"
  input: "^vgg_16/conv1/conv1_2/biases/Assign"
  input: "^vgg_16/conv1/conv1_2/weights/Assign"
  input: "^vgg_16/conv2/conv2_1/biases/Assign"
  input: "^vgg_16/conv2/conv2_1/weights/Assign"
  input: "^vgg_16/conv2/conv2_2/biases/Assign"
  input: "^vgg_16/conv2/conv2_2/weights/Assign"
  input: "^vgg_16/conv3/conv3_1/biases/Assign"
  input: "^vgg_16/conv3/conv3_1/biases/Momentum/Assign"
  input: "^vgg_16/conv3/conv3_1/weights/Assign"
  input: "^vgg_16/conv3/conv3_1/weights/Momentum/Assign"
  input: "^vgg_16/conv3/conv3_2/biases/Assign"
  input: "^vgg_16/conv3/conv3_2/biases/Momentum/Assign"
  input: "^vgg_16/conv3/conv3_2/weights/Assign"
  input: "^vgg_16/conv3/conv3_2/weights/Momentum/Assign"
  input: "^vgg_16/conv3/conv3_3/biases/Assign"
  input: "^vgg_16/conv3/conv3_3/biases/Momentum/Assign"
  input: "^vgg_16/conv3/conv3_3/weights/Assign"
  input: "^vgg_16/conv3/conv3_3/weights/Momentum/Assign"
  input: "^vgg_16/conv4/conv4_1/biases/Assign"
  input: "^vgg_16/conv4/conv4_1/biases/Momentum/Assign"
  input: "^vgg_16/conv4/conv4_1/weights/Assign"
  input: "^vgg_16/conv4/conv4_1/weights/Momentum/Assign"
  input: "^vgg_16/conv4/conv4_2/biases/Assign"
  input: "^vgg_16/conv4/conv4_2/biases/Momentum/Assign"
  input: "^vgg_16/conv4/conv4_2/weights/Assign"
  input: "^vgg_16/conv4/conv4_2/weights/Momentum/Assign"
  input: "^vgg_16/conv4/conv4_3/biases/Assign"
  input: "^vgg_16/conv4/conv4_3/biases/Momentum/Assign"
  input: "^vgg_16/conv4/conv4_3/weights/Assign"
  input: "^vgg_16/conv4/conv4_3/weights/Momentum/Assign"
  input: "^vgg_16/conv5/conv5_1/biases/Assign"
  input: "^vgg_16/conv5/conv5_1/biases/Momentum/Assign"
  input: "^vgg_16/conv5/conv5_1/weights/Assign"
  input: "^vgg_16/conv5/conv5_1/weights/Momentum/Assign"
  input: "^vgg_16/conv5/conv5_2/biases/Assign"
  input: "^vgg_16/conv5/conv5_2/biases/Momentum/Assign"
  input: "^vgg_16/conv5/conv5_2/weights/Assign"
  input: "^vgg_16/conv5/conv5_2/weights/Momentum/Assign"
  input: "^vgg_16/conv5/conv5_3/biases/Assign"
  input: "^vgg_16/conv5/conv5_3/biases/Momentum/Assign"
  input: "^vgg_16/conv5/conv5_3/weights/Assign"
  input: "^vgg_16/conv5/conv5_3/weights/Momentum/Assign"
  input: "^vgg_16/fc6/biases/Assign"
  input: "^vgg_16/fc6/biases/Momentum/Assign"
  input: "^vgg_16/fc6/weights/Assign"
  input: "^vgg_16/fc6/weights/Momentum/Assign"
  input: "^vgg_16/fc7/biases/Assign"
  input: "^vgg_16/fc7/biases/Momentum/Assign"
  input: "^vgg_16/fc7/weights/Assign"
  input: "^vgg_16/fc7/weights/Momentum/Assign"
  input: "^vgg_16/rpn_bbox_pred/biases/Assign"
  input: "^vgg_16/rpn_bbox_pred/biases/Momentum/Assign"
  input: "^vgg_16/rpn_bbox_pred/weights/Assign"
  input: "^vgg_16/rpn_bbox_pred/weights/Momentum/Assign"
  input: "^vgg_16/rpn_cls_score/biases/Assign"
  input: "^vgg_16/rpn_cls_score/biases/Momentum/Assign"
  input: "^vgg_16/rpn_cls_score/weights/Assign"
  input: "^vgg_16/rpn_cls_score/weights/Momentum/Assign"
  input: "^vgg_16/rpn_conv/3x3/biases/Assign"
  input: "^vgg_16/rpn_conv/3x3/biases/Momentum/Assign"
  input: "^vgg_16/rpn_conv/3x3/weights/Assign"
  input: "^vgg_16/rpn_conv/3x3/weights/Momentum/Assign"
}
node {
  name: "save_1/Const"
  op: "Const"
  attr {
    key: "dtype"
    value {
      type: DT_STRING
    }
  }
  attr {
    key: "value"
    value {
      tensor {
        dtype: DT_STRING
        tensor_shape {
        }
        string_val: "model"
      }
    }
  }
}
node {
  name: "save_1/SaveV2/tensor_names"
  op: "Const"
  attr {
    key: "dtype"
    value {
      type: DT_STRING
    }
  }
  attr {
    key: "value"
    value {
      tensor {
        dtype: DT_STRING
        tensor_shape {
          dim {
            size: 27
          }
        }
        string_val: "vgg_16/conv1/conv1_1/biases"
        string_val: "vgg_16/conv1/conv1_2/biases"
        string_val: "vgg_16/conv1/conv1_2/weights"
        string_val: "vgg_16/conv2/conv2_1/biases"
        string_val: "vgg_16/conv2/conv2_1/weights"
        string_val: "vgg_16/conv2/conv2_2/biases"
        string_val: "vgg_16/conv2/conv2_2/weights"
        string_val: "vgg_16/conv3/conv3_1/biases"
        string_val: "vgg_16/conv3/conv3_1/weights"
        string_val: "vgg_16/conv3/conv3_2/biases"
        string_val: "vgg_16/conv3/conv3_2/weights"
        string_val: "vgg_16/conv3/conv3_3/biases"
        string_val: "vgg_16/conv3/conv3_3/weights"
        string_val: "vgg_16/conv4/conv4_1/biases"
        string_val: "vgg_16/conv4/conv4_1/weights"
        string_val: "vgg_16/conv4/conv4_2/biases"
        string_val: "vgg_16/conv4/conv4_2/weights"
        string_val: "vgg_16/conv4/conv4_3/biases"
        string_val: "vgg_16/conv4/conv4_3/weights"
        string_val: "vgg_16/conv5/conv5_1/biases"
        string_val: "vgg_16/conv5/conv5_1/weights"
        string_val: "vgg_16/conv5/conv5_2/biases"
        string_val: "vgg_16/conv5/conv5_2/weights"
        string_val: "vgg_16/conv5/conv5_3/biases"
        string_val: "vgg_16/conv5/conv5_3/weights"
        string_val: "vgg_16/fc6/biases"
        string_val: "vgg_16/fc7/biases"
      }
    }
  }
}
node {
  name: "save_1/SaveV2/shape_and_slices"
  op: "Const"
  attr {
    key: "dtype"
    value {
      type: DT_STRING
    }
  }
  attr {
    key: "value"
    value {
      tensor {
        dtype: DT_STRING
        tensor_shape {
          dim {
            size: 27
          }
        }
        string_val: ""
        string_val: ""
        string_val: ""
        string_val: ""
        string_val: ""
        string_val: ""
        string_val: ""
        string_val: ""
        string_val: ""
        string_val: ""
        string_val: ""
        string_val: ""
        string_val: ""
        string_val: ""
        string_val: ""
        string_val: ""
        string_val: ""
        string_val: ""
        string_val: ""
        string_val: ""
        string_val: ""
        string_val: ""
        string_val: ""
        string_val: ""
        string_val: ""
        string_val: ""
        string_val: ""
      }
    }
  }
}
node {
  name: "save_1/SaveV2"
  op: "SaveV2"
  input: "save_1/Const"
  input: "save_1/SaveV2/tensor_names"
  input: "save_1/SaveV2/shape_and_slices"
  input: "vgg_16/conv1/conv1_1/biases"
  input: "vgg_16/conv1/conv1_2/biases"
  input: "vgg_16/conv1/conv1_2/weights"
  input: "vgg_16/conv2/conv2_1/biases"
  input: "vgg_16/conv2/conv2_1/weights"
  input: "vgg_16/conv2/conv2_2/biases"
  input: "vgg_16/conv2/conv2_2/weights"
  input: "vgg_16/conv3/conv3_1/biases"
  input: "vgg_16/conv3/conv3_1/weights"
  input: "vgg_16/conv3/conv3_2/biases"
  input: "vgg_16/conv3/conv3_2/weights"
  input: "vgg_16/conv3/conv3_3/biases"
  input: "vgg_16/conv3/conv3_3/weights"
  input: "vgg_16/conv4/conv4_1/biases"
  input: "vgg_16/conv4/conv4_1/weights"
  input: "vgg_16/conv4/conv4_2/biases"
  input: "vgg_16/conv4/conv4_2/weights"
  input: "vgg_16/conv4/conv4_3/biases"
  input: "vgg_16/conv4/conv4_3/weights"
  input: "vgg_16/conv5/conv5_1/biases"
  input: "vgg_16/conv5/conv5_1/weights"
  input: "vgg_16/conv5/conv5_2/biases"
  input: "vgg_16/conv5/conv5_2/weights"
  input: "vgg_16/conv5/conv5_3/biases"
  input: "vgg_16/conv5/conv5_3/weights"
  input: "vgg_16/fc6/biases"
  input: "vgg_16/fc7/biases"
  attr {
    key: "dtypes"
    value {
      list {
        type: DT_FLOAT
        type: DT_FLOAT
        type: DT_FLOAT
        type: DT_FLOAT
        type: DT_FLOAT
        type: DT_FLOAT
        type: DT_FLOAT
        type: DT_FLOAT
        type: DT_FLOAT
        type: DT_FLOAT
        type: DT_FLOAT
        type: DT_FLOAT
        type: DT_FLOAT
        type: DT_FLOAT
        type: DT_FLOAT
        type: DT_FLOAT
        type: DT_FLOAT
        type: DT_FLOAT
        type: DT_FLOAT
        type: DT_FLOAT
        type: DT_FLOAT
        type: DT_FLOAT
        type: DT_FLOAT
        type: DT_FLOAT
        type: DT_FLOAT
        type: DT_FLOAT
        type: DT_FLOAT
      }
    }
  }
}
node {
  name: "save_1/control_dependency"
  op: "Identity"
  input: "save_1/Const"
  input: "^save_1/SaveV2"
  attr {
    key: "T"
    value {
      type: DT_STRING
    }
  }
  attr {
    key: "_class"
    value {
      list {
        s: "loc:@save_1/Const"
      }
    }
  }
}
node {
  name: "save_1/RestoreV2/tensor_names"
  op: "Const"
  device: "/device:CPU:0"
  attr {
    key: "dtype"
    value {
      type: DT_STRING
    }
  }
  attr {
    key: "value"
    value {
      tensor {
        dtype: DT_STRING
        tensor_shape {
          dim {
            size: 27
          }
        }
        string_val: "vgg_16/conv1/conv1_1/biases"
        string_val: "vgg_16/conv1/conv1_2/biases"
        string_val: "vgg_16/conv1/conv1_2/weights"
        string_val: "vgg_16/conv2/conv2_1/biases"
        string_val: "vgg_16/conv2/conv2_1/weights"
        string_val: "vgg_16/conv2/conv2_2/biases"
        string_val: "vgg_16/conv2/conv2_2/weights"
        string_val: "vgg_16/conv3/conv3_1/biases"
        string_val: "vgg_16/conv3/conv3_1/weights"
        string_val: "vgg_16/conv3/conv3_2/biases"
        string_val: "vgg_16/conv3/conv3_2/weights"
        string_val: "vgg_16/conv3/conv3_3/biases"
        string_val: "vgg_16/conv3/conv3_3/weights"
        string_val: "vgg_16/conv4/conv4_1/biases"
        string_val: "vgg_16/conv4/conv4_1/weights"
        string_val: "vgg_16/conv4/conv4_2/biases"
        string_val: "vgg_16/conv4/conv4_2/weights"
        string_val: "vgg_16/conv4/conv4_3/biases"
        string_val: "vgg_16/conv4/conv4_3/weights"
        string_val: "vgg_16/conv5/conv5_1/biases"
        string_val: "vgg_16/conv5/conv5_1/weights"
        string_val: "vgg_16/conv5/conv5_2/biases"
        string_val: "vgg_16/conv5/conv5_2/weights"
        string_val: "vgg_16/conv5/conv5_3/biases"
        string_val: "vgg_16/conv5/conv5_3/weights"
        string_val: "vgg_16/fc6/biases"
        string_val: "vgg_16/fc7/biases"
      }
    }
  }
}
node {
  name: "save_1/RestoreV2/shape_and_slices"
  op: "Const"
  device: "/device:CPU:0"
  attr {
    key: "dtype"
    value {
      type: DT_STRING
    }
  }
  attr {
    key: "value"
    value {
      tensor {
        dtype: DT_STRING
        tensor_shape {
          dim {
            size: 27
          }
        }
        string_val: ""
        string_val: ""
        string_val: ""
        string_val: ""
        string_val: ""
        string_val: ""
        string_val: ""
        string_val: ""
        string_val: ""
        string_val: ""
        string_val: ""
        string_val: ""
        string_val: ""
        string_val: ""
        string_val: ""
        string_val: ""
        string_val: ""
        string_val: ""
        string_val: ""
        string_val: ""
        string_val: ""
        string_val: ""
        string_val: ""
        string_val: ""
        string_val: ""
        string_val: ""
        string_val: ""
      }
    }
  }
}
node {
  name: "save_1/RestoreV2"
  op: "RestoreV2"
  input: "save_1/Const"
  input: "save_1/RestoreV2/tensor_names"
  input: "save_1/RestoreV2/shape_and_slices"
  device: "/device:CPU:0"
  attr {
    key: "dtypes"
    value {
      list {
        type: DT_FLOAT
        type: DT_FLOAT
        type: DT_FLOAT
        type: DT_FLOAT
        type: DT_FLOAT
        type: DT_FLOAT
        type: DT_FLOAT
        type: DT_FLOAT
        type: DT_FLOAT
        type: DT_FLOAT
        type: DT_FLOAT
        type: DT_FLOAT
        type: DT_FLOAT
        type: DT_FLOAT
        type: DT_FLOAT
        type: DT_FLOAT
        type: DT_FLOAT
        type: DT_FLOAT
        type: DT_FLOAT
        type: DT_FLOAT
        type: DT_FLOAT
        type: DT_FLOAT
        type: DT_FLOAT
        type: DT_FLOAT
        type: DT_FLOAT
        type: DT_FLOAT
        type: DT_FLOAT
      }
    }
  }
}
node {
  name: "save_1/Assign"
  op: "Assign"
  input: "vgg_16/conv1/conv1_1/biases"
  input: "save_1/RestoreV2"
  attr {
    key: "T"
    value {
      type: DT_FLOAT
    }
  }
  attr {
    key: "_class"
    value {
      list {
        s: "loc:@vgg_16/conv1/conv1_1/biases"
      }
    }
  }
  attr {
    key: "use_locking"
    value {
      b: true
    }
  }
  attr {
    key: "validate_shape"
    value {
      b: true
    }
  }
}
node {
  name: "save_1/Assign_1"
  op: "Assign"
  input: "vgg_16/conv1/conv1_2/biases"
  input: "save_1/RestoreV2:1"
  attr {
    key: "T"
    value {
      type: DT_FLOAT
    }
  }
  attr {
    key: "_class"
    value {
      list {
        s: "loc:@vgg_16/conv1/conv1_2/biases"
      }
    }
  }
  attr {
    key: "use_locking"
    value {
      b: true
    }
  }
  attr {
    key: "validate_shape"
    value {
      b: true
    }
  }
}
node {
  name: "save_1/Assign_2"
  op: "Assign"
  input: "vgg_16/conv1/conv1_2/weights"
  input: "save_1/RestoreV2:2"
  attr {
    key: "T"
    value {
      type: DT_FLOAT
    }
  }
  attr {
    key: "_class"
    value {
      list {
        s: "loc:@vgg_16/conv1/conv1_2/weights"
      }
    }
  }
  attr {
    key: "use_locking"
    value {
      b: true
    }
  }
  attr {
    key: "validate_shape"
    value {
      b: true
    }
  }
}
node {
  name: "save_1/Assign_3"
  op: "Assign"
  input: "vgg_16/conv2/conv2_1/biases"
  input: "save_1/RestoreV2:3"
  attr {
    key: "T"
    value {
      type: DT_FLOAT
    }
  }
  attr {
    key: "_class"
    value {
      list {
        s: "loc:@vgg_16/conv2/conv2_1/biases"
      }
    }
  }
  attr {
    key: "use_locking"
    value {
      b: true
    }
  }
  attr {
    key: "validate_shape"
    value {
      b: true
    }
  }
}
node {
  name: "save_1/Assign_4"
  op: "Assign"
  input: "vgg_16/conv2/conv2_1/weights"
  input: "save_1/RestoreV2:4"
  attr {
    key: "T"
    value {
      type: DT_FLOAT
    }
  }
  attr {
    key: "_class"
    value {
      list {
        s: "loc:@vgg_16/conv2/conv2_1/weights"
      }
    }
  }
  attr {
    key: "use_locking"
    value {
      b: true
    }
  }
  attr {
    key: "validate_shape"
    value {
      b: true
    }
  }
}
node {
  name: "save_1/Assign_5"
  op: "Assign"
  input: "vgg_16/conv2/conv2_2/biases"
  input: "save_1/RestoreV2:5"
  attr {
    key: "T"
    value {
      type: DT_FLOAT
    }
  }
  attr {
    key: "_class"
    value {
      list {
        s: "loc:@vgg_16/conv2/conv2_2/biases"
      }
    }
  }
  attr {
    key: "use_locking"
    value {
      b: true
    }
  }
  attr {
    key: "validate_shape"
    value {
      b: true
    }
  }
}
node {
  name: "save_1/Assign_6"
  op: "Assign"
  input: "vgg_16/conv2/conv2_2/weights"
  input: "save_1/RestoreV2:6"
  attr {
    key: "T"
    value {
      type: DT_FLOAT
    }
  }
  attr {
    key: "_class"
    value {
      list {
        s: "loc:@vgg_16/conv2/conv2_2/weights"
      }
    }
  }
  attr {
    key: "use_locking"
    value {
      b: true
    }
  }
  attr {
    key: "validate_shape"
    value {
      b: true
    }
  }
}
node {
  name: "save_1/Assign_7"
  op: "Assign"
  input: "vgg_16/conv3/conv3_1/biases"
  input: "save_1/RestoreV2:7"
  attr {
    key: "T"
    value {
      type: DT_FLOAT
    }
  }
  attr {
    key: "_class"
    value {
      list {
        s: "loc:@vgg_16/conv3/conv3_1/biases"
      }
    }
  }
  attr {
    key: "use_locking"
    value {
      b: true
    }
  }
  attr {
    key: "validate_shape"
    value {
      b: true
    }
  }
}
node {
  name: "save_1/Assign_8"
  op: "Assign"
  input: "vgg_16/conv3/conv3_1/weights"
  input: "save_1/RestoreV2:8"
  attr {
    key: "T"
    value {
      type: DT_FLOAT
    }
  }
  attr {
    key: "_class"
    value {
      list {
        s: "loc:@vgg_16/conv3/conv3_1/weights"
      }
    }
  }
  attr {
    key: "use_locking"
    value {
      b: true
    }
  }
  attr {
    key: "validate_shape"
    value {
      b: true
    }
  }
}
node {
  name: "save_1/Assign_9"
  op: "Assign"
  input: "vgg_16/conv3/conv3_2/biases"
  input: "save_1/RestoreV2:9"
  attr {
    key: "T"
    value {
      type: DT_FLOAT
    }
  }
  attr {
    key: "_class"
    value {
      list {
        s: "loc:@vgg_16/conv3/conv3_2/biases"
      }
    }
  }
  attr {
    key: "use_locking"
    value {
      b: true
    }
  }
  attr {
    key: "validate_shape"
    value {
      b: true
    }
  }
}
node {
  name: "save_1/Assign_10"
  op: "Assign"
  input: "vgg_16/conv3/conv3_2/weights"
  input: "save_1/RestoreV2:10"
  attr {
    key: "T"
    value {
      type: DT_FLOAT
    }
  }
  attr {
    key: "_class"
    value {
      list {
        s: "loc:@vgg_16/conv3/conv3_2/weights"
      }
    }
  }
  attr {
    key: "use_locking"
    value {
      b: true
    }
  }
  attr {
    key: "validate_shape"
    value {
      b: true
    }
  }
}
node {
  name: "save_1/Assign_11"
  op: "Assign"
  input: "vgg_16/conv3/conv3_3/biases"
  input: "save_1/RestoreV2:11"
  attr {
    key: "T"
    value {
      type: DT_FLOAT
    }
  }
  attr {
    key: "_class"
    value {
      list {
        s: "loc:@vgg_16/conv3/conv3_3/biases"
      }
    }
  }
  attr {
    key: "use_locking"
    value {
      b: true
    }
  }
  attr {
    key: "validate_shape"
    value {
      b: true
    }
  }
}
node {
  name: "save_1/Assign_12"
  op: "Assign"
  input: "vgg_16/conv3/conv3_3/weights"
  input: "save_1/RestoreV2:12"
  attr {
    key: "T"
    value {
      type: DT_FLOAT
    }
  }
  attr {
    key: "_class"
    value {
      list {
        s: "loc:@vgg_16/conv3/conv3_3/weights"
      }
    }
  }
  attr {
    key: "use_locking"
    value {
      b: true
    }
  }
  attr {
    key: "validate_shape"
    value {
      b: true
    }
  }
}
node {
  name: "save_1/Assign_13"
  op: "Assign"
  input: "vgg_16/conv4/conv4_1/biases"
  input: "save_1/RestoreV2:13"
  attr {
    key: "T"
    value {
      type: DT_FLOAT
    }
  }
  attr {
    key: "_class"
    value {
      list {
        s: "loc:@vgg_16/conv4/conv4_1/biases"
      }
    }
  }
  attr {
    key: "use_locking"
    value {
      b: true
    }
  }
  attr {
    key: "validate_shape"
    value {
      b: true
    }
  }
}
node {
  name: "save_1/Assign_14"
  op: "Assign"
  input: "vgg_16/conv4/conv4_1/weights"
  input: "save_1/RestoreV2:14"
  attr {
    key: "T"
    value {
      type: DT_FLOAT
    }
  }
  attr {
    key: "_class"
    value {
      list {
        s: "loc:@vgg_16/conv4/conv4_1/weights"
      }
    }
  }
  attr {
    key: "use_locking"
    value {
      b: true
    }
  }
  attr {
    key: "validate_shape"
    value {
      b: true
    }
  }
}
node {
  name: "save_1/Assign_15"
  op: "Assign"
  input: "vgg_16/conv4/conv4_2/biases"
  input: "save_1/RestoreV2:15"
  attr {
    key: "T"
    value {
      type: DT_FLOAT
    }
  }
  attr {
    key: "_class"
    value {
      list {
        s: "loc:@vgg_16/conv4/conv4_2/biases"
      }
    }
  }
  attr {
    key: "use_locking"
    value {
      b: true
    }
  }
  attr {
    key: "validate_shape"
    value {
      b: true
    }
  }
}
node {
  name: "save_1/Assign_16"
  op: "Assign"
  input: "vgg_16/conv4/conv4_2/weights"
  input: "save_1/RestoreV2:16"
  attr {
    key: "T"
    value {
      type: DT_FLOAT
    }
  }
  attr {
    key: "_class"
    value {
      list {
        s: "loc:@vgg_16/conv4/conv4_2/weights"
      }
    }
  }
  attr {
    key: "use_locking"
    value {
      b: true
    }
  }
  attr {
    key: "validate_shape"
    value {
      b: true
    }
  }
}
node {
  name: "save_1/Assign_17"
  op: "Assign"
  input: "vgg_16/conv4/conv4_3/biases"
  input: "save_1/RestoreV2:17"
  attr {
    key: "T"
    value {
      type: DT_FLOAT
    }
  }
  attr {
    key: "_class"
    value {
      list {
        s: "loc:@vgg_16/conv4/conv4_3/biases"
      }
    }
  }
  attr {
    key: "use_locking"
    value {
      b: true
    }
  }
  attr {
    key: "validate_shape"
    value {
      b: true
    }
  }
}
node {
  name: "save_1/Assign_18"
  op: "Assign"
  input: "vgg_16/conv4/conv4_3/weights"
  input: "save_1/RestoreV2:18"
  attr {
    key: "T"
    value {
      type: DT_FLOAT
    }
  }
  attr {
    key: "_class"
    value {
      list {
        s: "loc:@vgg_16/conv4/conv4_3/weights"
      }
    }
  }
  attr {
    key: "use_locking"
    value {
      b: true
    }
  }
  attr {
    key: "validate_shape"
    value {
      b: true
    }
  }
}
node {
  name: "save_1/Assign_19"
  op: "Assign"
  input: "vgg_16/conv5/conv5_1/biases"
  input: "save_1/RestoreV2:19"
  attr {
    key: "T"
    value {
      type: DT_FLOAT
    }
  }
  attr {
    key: "_class"
    value {
      list {
        s: "loc:@vgg_16/conv5/conv5_1/biases"
      }
    }
  }
  attr {
    key: "use_locking"
    value {
      b: true
    }
  }
  attr {
    key: "validate_shape"
    value {
      b: true
    }
  }
}
node {
  name: "save_1/Assign_20"
  op: "Assign"
  input: "vgg_16/conv5/conv5_1/weights"
  input: "save_1/RestoreV2:20"
  attr {
    key: "T"
    value {
      type: DT_FLOAT
    }
  }
  attr {
    key: "_class"
    value {
      list {
        s: "loc:@vgg_16/conv5/conv5_1/weights"
      }
    }
  }
  attr {
    key: "use_locking"
    value {
      b: true
    }
  }
  attr {
    key: "validate_shape"
    value {
      b: true
    }
  }
}
node {
  name: "save_1/Assign_21"
  op: "Assign"
  input: "vgg_16/conv5/conv5_2/biases"
  input: "save_1/RestoreV2:21"
  attr {
    key: "T"
    value {
      type: DT_FLOAT
    }
  }
  attr {
    key: "_class"
    value {
      list {
        s: "loc:@vgg_16/conv5/conv5_2/biases"
      }
    }
  }
  attr {
    key: "use_locking"
    value {
      b: true
    }
  }
  attr {
    key: "validate_shape"
    value {
      b: true
    }
  }
}
node {
  name: "save_1/Assign_22"
  op: "Assign"
  input: "vgg_16/conv5/conv5_2/weights"
  input: "save_1/RestoreV2:22"
  attr {
    key: "T"
    value {
      type: DT_FLOAT
    }
  }
  attr {
    key: "_class"
    value {
      list {
        s: "loc:@vgg_16/conv5/conv5_2/weights"
      }
    }
  }
  attr {
    key: "use_locking"
    value {
      b: true
    }
  }
  attr {
    key: "validate_shape"
    value {
      b: true
    }
  }
}
node {
  name: "save_1/Assign_23"
  op: "Assign"
  input: "vgg_16/conv5/conv5_3/biases"
  input: "save_1/RestoreV2:23"
  attr {
    key: "T"
    value {
      type: DT_FLOAT
    }
  }
  attr {
    key: "_class"
    value {
      list {
        s: "loc:@vgg_16/conv5/conv5_3/biases"
      }
    }
  }
  attr {
    key: "use_locking"
    value {
      b: true
    }
  }
  attr {
    key: "validate_shape"
    value {
      b: true
    }
  }
}
node {
  name: "save_1/Assign_24"
  op: "Assign"
  input: "vgg_16/conv5/conv5_3/weights"
  input: "save_1/RestoreV2:24"
  attr {
    key: "T"
    value {
      type: DT_FLOAT
    }
  }
  attr {
    key: "_class"
    value {
      list {
        s: "loc:@vgg_16/conv5/conv5_3/weights"
      }
    }
  }
  attr {
    key: "use_locking"
    value {
      b: true
    }
  }
  attr {
    key: "validate_shape"
    value {
      b: true
    }
  }
}
node {
  name: "save_1/Assign_25"
  op: "Assign"
  input: "vgg_16/fc6/biases"
  input: "save_1/RestoreV2:25"
  attr {
    key: "T"
    value {
      type: DT_FLOAT
    }
  }
  attr {
    key: "_class"
    value {
      list {
        s: "loc:@vgg_16/fc6/biases"
      }
    }
  }
  attr {
    key: "use_locking"
    value {
      b: true
    }
  }
  attr {
    key: "validate_shape"
    value {
      b: true
    }
  }
}
node {
  name: "save_1/Assign_26"
  op: "Assign"
  input: "vgg_16/fc7/biases"
  input: "save_1/RestoreV2:26"
  attr {
    key: "T"
    value {
      type: DT_FLOAT
    }
  }
  attr {
    key: "_class"
    value {
      list {
        s: "loc:@vgg_16/fc7/biases"
      }
    }
  }
  attr {
    key: "use_locking"
    value {
      b: true
    }
  }
  attr {
    key: "validate_shape"
    value {
      b: true
    }
  }
}
node {
  name: "save_1/restore_all"
  op: "NoOp"
  input: "^save_1/Assign"
  input: "^save_1/Assign_1"
  input: "^save_1/Assign_10"
  input: "^save_1/Assign_11"
  input: "^save_1/Assign_12"
  input: "^save_1/Assign_13"
  input: "^save_1/Assign_14"
  input: "^save_1/Assign_15"
  input: "^save_1/Assign_16"
  input: "^save_1/Assign_17"
  input: "^save_1/Assign_18"
  input: "^save_1/Assign_19"
  input: "^save_1/Assign_2"
  input: "^save_1/Assign_20"
  input: "^save_1/Assign_21"
  input: "^save_1/Assign_22"
  input: "^save_1/Assign_23"
  input: "^save_1/Assign_24"
  input: "^save_1/Assign_25"
  input: "^save_1/Assign_26"
  input: "^save_1/Assign_3"
  input: "^save_1/Assign_4"
  input: "^save_1/Assign_5"
  input: "^save_1/Assign_6"
  input: "^save_1/Assign_7"
  input: "^save_1/Assign_8"
  input: "^save_1/Assign_9"
}
node {
  name: "Fix_VGG16/fc6_conv/Initializer/random_uniform/shape"
  op: "Const"
  attr {
    key: "_class"
    value {
      list {
        s: "loc:@Fix_VGG16/fc6_conv"
      }
    }
  }
  attr {
    key: "dtype"
    value {
      type: DT_INT32
    }
  }
  attr {
    key: "value"
    value {
      tensor {
        dtype: DT_INT32
        tensor_shape {
          dim {
            size: 4
          }
        }
        tensor_content: "\007\000\000\000\007\000\000\000\000\002\000\000\000\020\000\000"
      }
    }
  }
}
node {
  name: "Fix_VGG16/fc6_conv/Initializer/random_uniform/min"
  op: "Const"
  attr {
    key: "_class"
    value {
      list {
        s: "loc:@Fix_VGG16/fc6_conv"
      }
    }
  }
  attr {
    key: "dtype"
    value {
      type: DT_FLOAT
    }
  }
  attr {
    key: "value"
    value {
      tensor {
        dtype: DT_FLOAT
        tensor_shape {
        }
        float_val: -0.005154913291335106
      }
    }
  }
}
node {
  name: "Fix_VGG16/fc6_conv/Initializer/random_uniform/max"
  op: "Const"
  attr {
    key: "_class"
    value {
      list {
        s: "loc:@Fix_VGG16/fc6_conv"
      }
    }
  }
  attr {
    key: "dtype"
    value {
      type: DT_FLOAT
    }
  }
  attr {
    key: "value"
    value {
      tensor {
        dtype: DT_FLOAT
        tensor_shape {
        }
        float_val: 0.005154913291335106
      }
    }
  }
}
node {
  name: "Fix_VGG16/fc6_conv/Initializer/random_uniform/RandomUniform"
  op: "RandomUniform"
  input: "Fix_VGG16/fc6_conv/Initializer/random_uniform/shape"
  attr {
    key: "T"
    value {
      type: DT_INT32
    }
  }
  attr {
    key: "_class"
    value {
      list {
        s: "loc:@Fix_VGG16/fc6_conv"
      }
    }
  }
  attr {
    key: "dtype"
    value {
      type: DT_FLOAT
    }
  }
  attr {
    key: "seed"
    value {
      i: 3
    }
  }
  attr {
    key: "seed2"
    value {
      i: 1682
    }
  }
}
node {
  name: "Fix_VGG16/fc6_conv/Initializer/random_uniform/sub"
  op: "Sub"
  input: "Fix_VGG16/fc6_conv/Initializer/random_uniform/max"
  input: "Fix_VGG16/fc6_conv/Initializer/random_uniform/min"
  attr {
    key: "T"
    value {
      type: DT_FLOAT
    }
  }
  attr {
    key: "_class"
    value {
      list {
        s: "loc:@Fix_VGG16/fc6_conv"
      }
    }
  }
}
node {
  name: "Fix_VGG16/fc6_conv/Initializer/random_uniform/mul"
  op: "Mul"
  input: "Fix_VGG16/fc6_conv/Initializer/random_uniform/RandomUniform"
  input: "Fix_VGG16/fc6_conv/Initializer/random_uniform/sub"
  attr {
    key: "T"
    value {
      type: DT_FLOAT
    }
  }
  attr {
    key: "_class"
    value {
      list {
        s: "loc:@Fix_VGG16/fc6_conv"
      }
    }
  }
}
node {
  name: "Fix_VGG16/fc6_conv/Initializer/random_uniform"
  op: "Add"
  input: "Fix_VGG16/fc6_conv/Initializer/random_uniform/mul"
  input: "Fix_VGG16/fc6_conv/Initializer/random_uniform/min"
  attr {
    key: "T"
    value {
      type: DT_FLOAT
    }
  }
  attr {
    key: "_class"
    value {
      list {
        s: "loc:@Fix_VGG16/fc6_conv"
      }
    }
  }
}
node {
  name: "Fix_VGG16/fc6_conv"
  op: "VariableV2"
  device: "/device:CPU:0"
  attr {
    key: "_class"
    value {
      list {
        s: "loc:@Fix_VGG16/fc6_conv"
      }
    }
  }
  attr {
    key: "container"
    value {
      s: ""
    }
  }
  attr {
    key: "dtype"
    value {
      type: DT_FLOAT
    }
  }
  attr {
    key: "shape"
    value {
      shape {
        dim {
          size: 7
        }
        dim {
          size: 7
        }
        dim {
          size: 512
        }
        dim {
          size: 4096
        }
      }
    }
  }
  attr {
    key: "shared_name"
    value {
      s: ""
    }
  }
}
node {
  name: "Fix_VGG16/fc6_conv/Assign"
  op: "Assign"
  input: "Fix_VGG16/fc6_conv"
  input: "Fix_VGG16/fc6_conv/Initializer/random_uniform"
  device: "/device:CPU:0"
  attr {
    key: "T"
    value {
      type: DT_FLOAT
    }
  }
  attr {
    key: "_class"
    value {
      list {
        s: "loc:@Fix_VGG16/fc6_conv"
      }
    }
  }
  attr {
    key: "use_locking"
    value {
      b: true
    }
  }
  attr {
    key: "validate_shape"
    value {
      b: true
    }
  }
}
node {
  name: "Fix_VGG16/fc6_conv/read"
  op: "Identity"
  input: "Fix_VGG16/fc6_conv"
  device: "/device:CPU:0"
  attr {
    key: "T"
    value {
      type: DT_FLOAT
    }
  }
  attr {
    key: "_class"
    value {
      list {
        s: "loc:@Fix_VGG16/fc6_conv"
      }
    }
  }
}
node {
  name: "Fix_VGG16/fc7_conv/Initializer/random_uniform/shape"
  op: "Const"
  attr {
    key: "_class"
    value {
      list {
        s: "loc:@Fix_VGG16/fc7_conv"
      }
    }
  }
  attr {
    key: "dtype"
    value {
      type: DT_INT32
    }
  }
  attr {
    key: "value"
    value {
      tensor {
        dtype: DT_INT32
        tensor_shape {
          dim {
            size: 4
          }
        }
        tensor_content: "\001\000\000\000\001\000\000\000\000\020\000\000\000\020\000\000"
      }
    }
  }
}
node {
  name: "Fix_VGG16/fc7_conv/Initializer/random_uniform/min"
  op: "Const"
  attr {
    key: "_class"
    value {
      list {
        s: "loc:@Fix_VGG16/fc7_conv"
      }
    }
  }
  attr {
    key: "dtype"
    value {
      type: DT_FLOAT
    }
  }
  attr {
    key: "value"
    value {
      tensor {
        dtype: DT_FLOAT
        tensor_shape {
        }
        float_val: -0.027063293382525444
      }
    }
  }
}
node {
  name: "Fix_VGG16/fc7_conv/Initializer/random_uniform/max"
  op: "Const"
  attr {
    key: "_class"
    value {
      list {
        s: "loc:@Fix_VGG16/fc7_conv"
      }
    }
  }
  attr {
    key: "dtype"
    value {
      type: DT_FLOAT
    }
  }
  attr {
    key: "value"
    value {
      tensor {
        dtype: DT_FLOAT
        tensor_shape {
        }
        float_val: 0.027063293382525444
      }
    }
  }
}
node {
  name: "Fix_VGG16/fc7_conv/Initializer/random_uniform/RandomUniform"
  op: "RandomUniform"
  input: "Fix_VGG16/fc7_conv/Initializer/random_uniform/shape"
  attr {
    key: "T"
    value {
      type: DT_INT32
    }
  }
  attr {
    key: "_class"
    value {
      list {
        s: "loc:@Fix_VGG16/fc7_conv"
      }
    }
  }
  attr {
    key: "dtype"
    value {
      type: DT_FLOAT
    }
  }
  attr {
    key: "seed"
    value {
      i: 3
    }
  }
  attr {
    key: "seed2"
    value {
      i: 1692
    }
  }
}
node {
  name: "Fix_VGG16/fc7_conv/Initializer/random_uniform/sub"
  op: "Sub"
  input: "Fix_VGG16/fc7_conv/Initializer/random_uniform/max"
  input: "Fix_VGG16/fc7_conv/Initializer/random_uniform/min"
  attr {
    key: "T"
    value {
      type: DT_FLOAT
    }
  }
  attr {
    key: "_class"
    value {
      list {
        s: "loc:@Fix_VGG16/fc7_conv"
      }
    }
  }
}
node {
  name: "Fix_VGG16/fc7_conv/Initializer/random_uniform/mul"
  op: "Mul"
  input: "Fix_VGG16/fc7_conv/Initializer/random_uniform/RandomUniform"
  input: "Fix_VGG16/fc7_conv/Initializer/random_uniform/sub"
  attr {
    key: "T"
    value {
      type: DT_FLOAT
    }
  }
  attr {
    key: "_class"
    value {
      list {
        s: "loc:@Fix_VGG16/fc7_conv"
      }
    }
  }
}
node {
  name: "Fix_VGG16/fc7_conv/Initializer/random_uniform"
  op: "Add"
  input: "Fix_VGG16/fc7_conv/Initializer/random_uniform/mul"
  input: "Fix_VGG16/fc7_conv/Initializer/random_uniform/min"
  attr {
    key: "T"
    value {
      type: DT_FLOAT
    }
  }
  attr {
    key: "_class"
    value {
      list {
        s: "loc:@Fix_VGG16/fc7_conv"
      }
    }
  }
}
node {
  name: "Fix_VGG16/fc7_conv"
  op: "VariableV2"
  device: "/device:CPU:0"
  attr {
    key: "_class"
    value {
      list {
        s: "loc:@Fix_VGG16/fc7_conv"
      }
    }
  }
  attr {
    key: "container"
    value {
      s: ""
    }
  }
  attr {
    key: "dtype"
    value {
      type: DT_FLOAT
    }
  }
  attr {
    key: "shape"
    value {
      shape {
        dim {
          size: 1
        }
        dim {
          size: 1
        }
        dim {
          size: 4096
        }
        dim {
          size: 4096
        }
      }
    }
  }
  attr {
    key: "shared_name"
    value {
      s: ""
    }
  }
}
node {
  name: "Fix_VGG16/fc7_conv/Assign"
  op: "Assign"
  input: "Fix_VGG16/fc7_conv"
  input: "Fix_VGG16/fc7_conv/Initializer/random_uniform"
  device: "/device:CPU:0"
  attr {
    key: "T"
    value {
      type: DT_FLOAT
    }
  }
  attr {
    key: "_class"
    value {
      list {
        s: "loc:@Fix_VGG16/fc7_conv"
      }
    }
  }
  attr {
    key: "use_locking"
    value {
      b: true
    }
  }
  attr {
    key: "validate_shape"
    value {
      b: true
    }
  }
}
node {
  name: "Fix_VGG16/fc7_conv/read"
  op: "Identity"
  input: "Fix_VGG16/fc7_conv"
  device: "/device:CPU:0"
  attr {
    key: "T"
    value {
      type: DT_FLOAT
    }
  }
  attr {
    key: "_class"
    value {
      list {
        s: "loc:@Fix_VGG16/fc7_conv"
      }
    }
  }
}
node {
  name: "Fix_VGG16/conv1_rgb/Initializer/random_uniform/shape"
  op: "Const"
  attr {
    key: "_class"
    value {
      list {
        s: "loc:@Fix_VGG16/conv1_rgb"
      }
    }
  }
  attr {
    key: "dtype"
    value {
      type: DT_INT32
    }
  }
  attr {
    key: "value"
    value {
      tensor {
        dtype: DT_INT32
        tensor_shape {
          dim {
            size: 4
          }
        }
        tensor_content: "\003\000\000\000\003\000\000\000\003\000\000\000@\000\000\000"
      }
    }
  }
}
node {
  name: "Fix_VGG16/conv1_rgb/Initializer/random_uniform/min"
  op: "Const"
  attr {
    key: "_class"
    value {
      list {
        s: "loc:@Fix_VGG16/conv1_rgb"
      }
    }
  }
  attr {
    key: "dtype"
    value {
      type: DT_FLOAT
    }
  }
  attr {
    key: "value"
    value {
      tensor {
        dtype: DT_FLOAT
        tensor_shape {
        }
        float_val: -0.09975093603134155
      }
    }
  }
}
node {
  name: "Fix_VGG16/conv1_rgb/Initializer/random_uniform/max"
  op: "Const"
  attr {
    key: "_class"
    value {
      list {
        s: "loc:@Fix_VGG16/conv1_rgb"
      }
    }
  }
  attr {
    key: "dtype"
    value {
      type: DT_FLOAT
    }
  }
  attr {
    key: "value"
    value {
      tensor {
        dtype: DT_FLOAT
        tensor_shape {
        }
        float_val: 0.09975093603134155
      }
    }
  }
}
node {
  name: "Fix_VGG16/conv1_rgb/Initializer/random_uniform/RandomUniform"
  op: "RandomUniform"
  input: "Fix_VGG16/conv1_rgb/Initializer/random_uniform/shape"
  attr {
    key: "T"
    value {
      type: DT_INT32
    }
  }
  attr {
    key: "_class"
    value {
      list {
        s: "loc:@Fix_VGG16/conv1_rgb"
      }
    }
  }
  attr {
    key: "dtype"
    value {
      type: DT_FLOAT
    }
  }
  attr {
    key: "seed"
    value {
      i: 3
    }
  }
  attr {
    key: "seed2"
    value {
      i: 1702
    }
  }
}
node {
  name: "Fix_VGG16/conv1_rgb/Initializer/random_uniform/sub"
  op: "Sub"
  input: "Fix_VGG16/conv1_rgb/Initializer/random_uniform/max"
  input: "Fix_VGG16/conv1_rgb/Initializer/random_uniform/min"
  attr {
    key: "T"
    value {
      type: DT_FLOAT
    }
  }
  attr {
    key: "_class"
    value {
      list {
        s: "loc:@Fix_VGG16/conv1_rgb"
      }
    }
  }
}
node {
  name: "Fix_VGG16/conv1_rgb/Initializer/random_uniform/mul"
  op: "Mul"
  input: "Fix_VGG16/conv1_rgb/Initializer/random_uniform/RandomUniform"
  input: "Fix_VGG16/conv1_rgb/Initializer/random_uniform/sub"
  attr {
    key: "T"
    value {
      type: DT_FLOAT
    }
  }
  attr {
    key: "_class"
    value {
      list {
        s: "loc:@Fix_VGG16/conv1_rgb"
      }
    }
  }
}
node {
  name: "Fix_VGG16/conv1_rgb/Initializer/random_uniform"
  op: "Add"
  input: "Fix_VGG16/conv1_rgb/Initializer/random_uniform/mul"
  input: "Fix_VGG16/conv1_rgb/Initializer/random_uniform/min"
  attr {
    key: "T"
    value {
      type: DT_FLOAT
    }
  }
  attr {
    key: "_class"
    value {
      list {
        s: "loc:@Fix_VGG16/conv1_rgb"
      }
    }
  }
}
node {
  name: "Fix_VGG16/conv1_rgb"
  op: "VariableV2"
  device: "/device:CPU:0"
  attr {
    key: "_class"
    value {
      list {
        s: "loc:@Fix_VGG16/conv1_rgb"
      }
    }
  }
  attr {
    key: "container"
    value {
      s: ""
    }
  }
  attr {
    key: "dtype"
    value {
      type: DT_FLOAT
    }
  }
  attr {
    key: "shape"
    value {
      shape {
        dim {
          size: 3
        }
        dim {
          size: 3
        }
        dim {
          size: 3
        }
        dim {
          size: 64
        }
      }
    }
  }
  attr {
    key: "shared_name"
    value {
      s: ""
    }
  }
}
node {
  name: "Fix_VGG16/conv1_rgb/Assign"
  op: "Assign"
  input: "Fix_VGG16/conv1_rgb"
  input: "Fix_VGG16/conv1_rgb/Initializer/random_uniform"
  device: "/device:CPU:0"
  attr {
    key: "T"
    value {
      type: DT_FLOAT
    }
  }
  attr {
    key: "_class"
    value {
      list {
        s: "loc:@Fix_VGG16/conv1_rgb"
      }
    }
  }
  attr {
    key: "use_locking"
    value {
      b: true
    }
  }
  attr {
    key: "validate_shape"
    value {
      b: true
    }
  }
}
node {
  name: "Fix_VGG16/conv1_rgb/read"
  op: "Identity"
  input: "Fix_VGG16/conv1_rgb"
  device: "/device:CPU:0"
  attr {
    key: "T"
    value {
      type: DT_FLOAT
    }
  }
  attr {
    key: "_class"
    value {
      list {
        s: "loc:@Fix_VGG16/conv1_rgb"
      }
    }
  }
}
node {
  name: "Fix_VGG16/save/Const"
  op: "Const"
  device: "/device:CPU:0"
  attr {
    key: "dtype"
    value {
      type: DT_STRING
    }
  }
  attr {
    key: "value"
    value {
      tensor {
        dtype: DT_STRING
        tensor_shape {
        }
        string_val: "model"
      }
    }
  }
}
node {
  name: "Fix_VGG16/save/SaveV2/tensor_names"
  op: "Const"
  device: "/device:CPU:0"
  attr {
    key: "dtype"
    value {
      type: DT_STRING
    }
  }
  attr {
    key: "value"
    value {
      tensor {
        dtype: DT_STRING
        tensor_shape {
          dim {
            size: 3
          }
        }
        string_val: "vgg_16/conv1/conv1_1/weights"
        string_val: "vgg_16/fc6/weights"
        string_val: "vgg_16/fc7/weights"
      }
    }
  }
}
node {
  name: "Fix_VGG16/save/SaveV2/shape_and_slices"
  op: "Const"
  device: "/device:CPU:0"
  attr {
    key: "dtype"
    value {
      type: DT_STRING
    }
  }
  attr {
    key: "value"
    value {
      tensor {
        dtype: DT_STRING
        tensor_shape {
          dim {
            size: 3
          }
        }
        string_val: ""
        string_val: ""
        string_val: ""
      }
    }
  }
}
node {
  name: "Fix_VGG16/save/SaveV2"
  op: "SaveV2"
  input: "Fix_VGG16/save/Const"
  input: "Fix_VGG16/save/SaveV2/tensor_names"
  input: "Fix_VGG16/save/SaveV2/shape_and_slices"
  input: "Fix_VGG16/conv1_rgb"
  input: "Fix_VGG16/fc6_conv"
  input: "Fix_VGG16/fc7_conv"
  device: "/device:CPU:0"
  attr {
    key: "dtypes"
    value {
      list {
        type: DT_FLOAT
        type: DT_FLOAT
        type: DT_FLOAT
      }
    }
  }
}
node {
  name: "Fix_VGG16/save/control_dependency"
  op: "Identity"
  input: "Fix_VGG16/save/Const"
  input: "^Fix_VGG16/save/SaveV2"
  device: "/device:CPU:0"
  attr {
    key: "T"
    value {
      type: DT_STRING
    }
  }
  attr {
    key: "_class"
    value {
      list {
        s: "loc:@Fix_VGG16/save/Const"
      }
    }
  }
}
node {
  name: "Fix_VGG16/save/RestoreV2/tensor_names"
  op: "Const"
  device: "/device:CPU:0"
  attr {
    key: "dtype"
    value {
      type: DT_STRING
    }
  }
  attr {
    key: "value"
    value {
      tensor {
        dtype: DT_STRING
        tensor_shape {
          dim {
            size: 3
          }
        }
        string_val: "vgg_16/conv1/conv1_1/weights"
        string_val: "vgg_16/fc6/weights"
        string_val: "vgg_16/fc7/weights"
      }
    }
  }
}
node {
  name: "Fix_VGG16/save/RestoreV2/shape_and_slices"
  op: "Const"
  device: "/device:CPU:0"
  attr {
    key: "dtype"
    value {
      type: DT_STRING
    }
  }
  attr {
    key: "value"
    value {
      tensor {
        dtype: DT_STRING
        tensor_shape {
          dim {
            size: 3
          }
        }
        string_val: ""
        string_val: ""
        string_val: ""
      }
    }
  }
}
node {
  name: "Fix_VGG16/save/RestoreV2"
  op: "RestoreV2"
  input: "Fix_VGG16/save/Const"
  input: "Fix_VGG16/save/RestoreV2/tensor_names"
  input: "Fix_VGG16/save/RestoreV2/shape_and_slices"
  device: "/device:CPU:0"
  attr {
    key: "dtypes"
    value {
      list {
        type: DT_FLOAT
        type: DT_FLOAT
        type: DT_FLOAT
      }
    }
  }
}
node {
  name: "Fix_VGG16/save/Assign"
  op: "Assign"
  input: "Fix_VGG16/conv1_rgb"
  input: "Fix_VGG16/save/RestoreV2"
  device: "/device:CPU:0"
  attr {
    key: "T"
    value {
      type: DT_FLOAT
    }
  }
  attr {
    key: "_class"
    value {
      list {
        s: "loc:@Fix_VGG16/conv1_rgb"
      }
    }
  }
  attr {
    key: "use_locking"
    value {
      b: true
    }
  }
  attr {
    key: "validate_shape"
    value {
      b: true
    }
  }
}
node {
  name: "Fix_VGG16/save/Assign_1"
  op: "Assign"
  input: "Fix_VGG16/fc6_conv"
  input: "Fix_VGG16/save/RestoreV2:1"
  device: "/device:CPU:0"
  attr {
    key: "T"
    value {
      type: DT_FLOAT
    }
  }
  attr {
    key: "_class"
    value {
      list {
        s: "loc:@Fix_VGG16/fc6_conv"
      }
    }
  }
  attr {
    key: "use_locking"
    value {
      b: true
    }
  }
  attr {
    key: "validate_shape"
    value {
      b: true
    }
  }
}
node {
  name: "Fix_VGG16/save/Assign_2"
  op: "Assign"
  input: "Fix_VGG16/fc7_conv"
  input: "Fix_VGG16/save/RestoreV2:2"
  device: "/device:CPU:0"
  attr {
    key: "T"
    value {
      type: DT_FLOAT
    }
  }
  attr {
    key: "_class"
    value {
      list {
        s: "loc:@Fix_VGG16/fc7_conv"
      }
    }
  }
  attr {
    key: "use_locking"
    value {
      b: true
    }
  }
  attr {
    key: "validate_shape"
    value {
      b: true
    }
  }
}
node {
  name: "Fix_VGG16/save/restore_all"
  op: "NoOp"
  input: "^Fix_VGG16/save/Assign"
  input: "^Fix_VGG16/save/Assign_1"
  input: "^Fix_VGG16/save/Assign_2"
  device: "/device:CPU:0"
}
node {
  name: "Fix_VGG16/Reshape/shape"
  op: "Const"
  device: "/device:CPU:0"
  attr {
    key: "dtype"
    value {
      type: DT_INT32
    }
  }
  attr {
    key: "value"
    value {
      tensor {
        dtype: DT_INT32
        tensor_shape {
          dim {
            size: 2
          }
        }
        tensor_content: "\000b\000\000\000\020\000\000"
      }
    }
  }
}
node {
  name: "Fix_VGG16/Reshape"
  op: "Reshape"
  input: "Fix_VGG16/fc6_conv/read"
  input: "Fix_VGG16/Reshape/shape"
  device: "/device:CPU:0"
  attr {
    key: "T"
    value {
      type: DT_FLOAT
    }
  }
  attr {
    key: "Tshape"
    value {
      type: DT_INT32
    }
  }
}
node {
  name: "Fix_VGG16/Assign"
  op: "Assign"
  input: "vgg_16/fc6/weights"
  input: "Fix_VGG16/Reshape"
  attr {
    key: "T"
    value {
      type: DT_FLOAT
    }
  }
  attr {
    key: "_class"
    value {
      list {
        s: "loc:@vgg_16/fc6/weights"
      }
    }
  }
  attr {
    key: "use_locking"
    value {
      b: true
    }
  }
  attr {
    key: "validate_shape"
    value {
      b: true
    }
  }
}
node {
  name: "Fix_VGG16/Reshape_1/shape"
  op: "Const"
  device: "/device:CPU:0"
  attr {
    key: "dtype"
    value {
      type: DT_INT32
    }
  }
  attr {
    key: "value"
    value {
      tensor {
        dtype: DT_INT32
        tensor_shape {
          dim {
            size: 2
          }
        }
        tensor_content: "\000\020\000\000\000\020\000\000"
      }
    }
  }
}
node {
  name: "Fix_VGG16/Reshape_1"
  op: "Reshape"
  input: "Fix_VGG16/fc7_conv/read"
  input: "Fix_VGG16/Reshape_1/shape"
  device: "/device:CPU:0"
  attr {
    key: "T"
    value {
      type: DT_FLOAT
    }
  }
  attr {
    key: "Tshape"
    value {
      type: DT_INT32
    }
  }
}
node {
  name: "Fix_VGG16/Assign_1"
  op: "Assign"
  input: "vgg_16/fc7/weights"
  input: "Fix_VGG16/Reshape_1"
  attr {
    key: "T"
    value {
      type: DT_FLOAT
    }
  }
  attr {
    key: "_class"
    value {
      list {
        s: "loc:@vgg_16/fc7/weights"
      }
    }
  }
  attr {
    key: "use_locking"
    value {
      b: true
    }
  }
  attr {
    key: "validate_shape"
    value {
      b: true
    }
  }
}
node {
  name: "Fix_VGG16/ReverseV2/axis"
  op: "Const"
  device: "/device:CPU:0"
  attr {
    key: "dtype"
    value {
      type: DT_INT32
    }
  }
  attr {
    key: "value"
    value {
      tensor {
        dtype: DT_INT32
        tensor_shape {
          dim {
            size: 1
          }
        }
        int_val: 2
      }
    }
  }
}
node {
  name: "Fix_VGG16/ReverseV2"
  op: "ReverseV2"
  input: "Fix_VGG16/conv1_rgb/read"
  input: "Fix_VGG16/ReverseV2/axis"
  device: "/device:CPU:0"
  attr {
    key: "T"
    value {
      type: DT_FLOAT
    }
  }
  attr {
    key: "Tidx"
    value {
      type: DT_INT32
    }
  }
}
node {
  name: "Fix_VGG16/Assign_2"
  op: "Assign"
  input: "vgg_16/conv1/conv1_1/weights"
  input: "Fix_VGG16/ReverseV2"
  attr {
    key: "T"
    value {
      type: DT_FLOAT
    }
  }
  attr {
    key: "_class"
    value {
      list {
        s: "loc:@vgg_16/conv1/conv1_1/weights"
      }
    }
  }
  attr {
    key: "use_locking"
    value {
      b: true
    }
  }
  attr {
    key: "validate_shape"
    value {
      b: true
    }
  }
}
node {
  name: "Assign/value"
  op: "Const"
  attr {
    key: "dtype"
    value {
      type: DT_FLOAT
    }
  }
  attr {
    key: "value"
    value {
      tensor {
        dtype: DT_FLOAT
        tensor_shape {
        }
        float_val: 0.0010000000474974513
      }
    }
  }
}
node {
  name: "Assign"
  op: "Assign"
  input: "Variable"
  input: "Assign/value"
  attr {
    key: "T"
    value {
      type: DT_FLOAT
    }
  }
  attr {
    key: "_class"
    value {
      list {
        s: "loc:@Variable"
      }
    }
  }
  attr {
    key: "use_locking"
    value {
      b: true
    }
  }
  attr {
    key: "validate_shape"
    value {
      b: true
    }
  }
}
versions {
  producer: 27
}
